…
vader:/media/ssd1/austin/Point-DSRG/training/experiment/seed_mc$ python ../../tools/test-ms.py --model models/model-s_iter_8000.caffemodel --images list/val_id.txt --dir ${PASCAL_DIR} --output ${PASCAL_DIR}/DSRGValOutput --gpu ${GPU} --smooth true
/media/ssd1/austin/Point-DSRG/deeplab-public-ver2/python
WARNING: Logging before InitGoogleLogging() is written to STDERR
I0312 16:34:32.592305 10704 net.cpp:49] Initializing net from parameters:
name: "DSRG"
input: "images"
input_dim: 1
input_dim: 3
input_dim: 321
input_dim: 321
state {
  phase: TEST
}
layer {
  name: "conv1_1"
  type: "Convolution"
  bottom: "images"
  top: "conv1_1"
  param {
    lr_mult: 1
    decay_mult: 1
  }
  param {
    lr_mult: 2
    decay_mult: 0
  }
  convolution_param {
    num_output: 64
    pad: 1
    kernel_size: 3
  }
}
layer {
  name: "relu1_1"
  type: "ReLU"
  bottom: "conv1_1"
  top: "conv1_1"
}
layer {
  name: "conv1_2"
  type: "Convolution"
  bottom: "conv1_1"
  top: "conv1_2"
  param {
    lr_mult: 1
    decay_mult: 1
  }
  param {
    lr_mult: 2
    decay_mult: 0
  }
  convolution_param {
    num_output: 64
    pad: 1
    kernel_size: 3
  }
}
layer {
  name: "relu1_2"
  type: "ReLU"
  bottom: "conv1_2"
  top: "conv1_2"
}
layer {
  name: "pool1"
  type: "Pooling"
  bottom: "conv1_2"
  top: "pool1"
  pooling_param {
    pool: MAX
    kernel_size: 3
    stride: 2
    pad: 1
  }
}
layer {
  name: "conv2_1"
  type: "Convolution"
  bottom: "pool1"
  top: "conv2_1"
  param {
    lr_mult: 1
    decay_mult: 1
  }
  param {
    lr_mult: 2
    decay_mult: 0
  }
  convolution_param {
    num_output: 128
    pad: 1
    kernel_size: 3
  }
}
layer {
  name: "relu2_1"
  type: "ReLU"
  bottom: "conv2_1"
  top: "conv2_1"
}
layer {
  name: "conv2_2"
  type: "Convolution"
  bottom: "conv2_1"
  top: "conv2_2"
  param {
    lr_mult: 1
    decay_mult: 1
  }
  param {
    lr_mult: 2
    decay_mult: 0
  }
  convolution_param {
    num_output: 128
    pad: 1
    kernel_size: 3
  }
}
layer {
  name: "relu2_2"
  type: "ReLU"
  bottom: "conv2_2"
  top: "conv2_2"
}
layer {
  name: "pool2"
  type: "Pooling"
  bottom: "conv2_2"
  top: "pool2"
  pooling_param {
    pool: MAX
    kernel_size: 3
    stride: 2
    pad: 1
  }
}
layer {
  name: "conv3_1"
  type: "Convolution"
  bottom: "pool2"
  top: "conv3_1"
  param {
    lr_mult: 1
    decay_mult: 1
  }
  param {
    lr_mult: 2
    decay_mult: 0
  }
  convolution_param {
    num_output: 256
    pad: 1
    kernel_size: 3
  }
}
layer {
  name: "relu3_1"
  type: "ReLU"
  bottom: "conv3_1"
  top: "conv3_1"
}
layer {
  name: "conv3_2"
  type: "Convolution"
  bottom: "conv3_1"
  top: "conv3_2"
  param {
    lr_mult: 1
    decay_mult: 1
  }
  param {
    lr_mult: 2
    decay_mult: 0
  }
  convolution_param {
    num_output: 256
    pad: 1
    kernel_size: 3
  }
}
layer {
  name: "relu3_2"
  type: "ReLU"
  bottom: "conv3_2"
  top: "conv3_2"
}
layer {
  name: "conv3_3"
  type: "Convolution"
  bottom: "conv3_2"
  top: "conv3_3"
  param {
    lr_mult: 1
    decay_mult: 1
  }
  param {
    lr_mult: 2
    decay_mult: 0
  }
  convolution_param {
    num_output: 256
    pad: 1
    kernel_size: 3
  }
}
layer {
  name: "relu3_3"
  type: "ReLU"
  bottom: "conv3_3"
  top: "conv3_3"
}
layer {
  name: "pool3"
  type: "Pooling"
  bottom: "conv3_3"
  top: "pool3"
  pooling_param {
    pool: MAX
    kernel_size: 3
    stride: 2
    pad: 1
  }
}
layer {
  name: "conv4_1"
  type: "Convolution"
  bottom: "pool3"
  top: "conv4_1"
  param {
    lr_mult: 1
    decay_mult: 1
  }
  param {
    lr_mult: 2
    decay_mult: 0
  }
  convolution_param {
    num_output: 512
    pad: 1
    kernel_size: 3
  }
}
layer {
  name: "relu4_1"
  type: "ReLU"
  bottom: "conv4_1"
  top: "conv4_1"
}
layer {
  name: "conv4_2"
  type: "Convolution"
  bottom: "conv4_1"
  top: "conv4_2"
  param {
    lr_mult: 1
    decay_mult: 1
  }
  param {
    lr_mult: 2
    decay_mult: 0
  }
  convolution_param {
    num_output: 512
    pad: 1
    kernel_size: 3
  }
}
layer {
  name: "relu4_2"
  type: "ReLU"
  bottom: "conv4_2"
  top: "conv4_2"
}
layer {
  name: "conv4_3"
  type: "Convolution"
  bottom: "conv4_2"
  top: "conv4_3"
  param {
    lr_mult: 1
    decay_mult: 1
  }
  param {
    lr_mult: 2
    decay_mult: 0
  }
  convolution_param {
    num_output: 512
    pad: 1
    kernel_size: 3
  }
}
layer {
  name: "relu4_3"
  type: "ReLU"
  bottom: "conv4_3"
  top: "conv4_3"
}
layer {
  name: "pool4"
  type: "Pooling"
  bottom: "conv4_3"
  top: "pool4"
  pooling_param {
    pool: MAX
    kernel_size: 3
    stride: 1
    pad: 1
  }
}
layer {
  name: "conv5_1"
  type: "Convolution"
  bottom: "pool4"
  top: "conv5_1"
  param {
    lr_mult: 1
    decay_mult: 1
  }
  param {
    lr_mult: 2
    decay_mult: 0
  }
  convolution_param {
    num_output: 512
    pad: 2
    kernel_size: 3
    dilation: 2
  }
}
layer {
  name: "relu5_1"
  type: "ReLU"
  bottom: "conv5_1"
  top: "conv5_1"
}
layer {
  name: "conv5_2"
  type: "Convolution"
  bottom: "conv5_1"
  top: "conv5_2"
  param {
    lr_mult: 1
    decay_mult: 1
  }
  param {
    lr_mult: 2
    decay_mult: 0
  }
  convolution_param {
    num_output: 512
    pad: 2
    kernel_size: 3
    dilation: 2
  }
}
layer {
  name: "relu5_2"
  type: "ReLU"
  bottom: "conv5_2"
  top: "conv5_2"
}
layer {
  name: "conv5_3"
  type: "Convolution"
  bottom: "conv5_2"
  top: "conv5_3"
  param {
    lr_mult: 1
    decay_mult: 1
  }
  param {
    lr_mult: 2
    decay_mult: 0
  }
  convolution_param {
    num_output: 512
    pad: 2
    kernel_size: 3
    dilation: 2
  }
}
layer {
  name: "relu5_3"
  type: "ReLU"
  bottom: "conv5_3"
  top: "conv5_3"
}
layer {
  name: "pool5"
  type: "Pooling"
  bottom: "conv5_3"
  top: "pool5"
  pooling_param {
    pool: MAX
    kernel_size: 3
    stride: 1
    pad: 1
  }
}
layer {
  name: "pool5a"
  type: "Pooling"
  bottom: "pool5"
  top: "pool5a"
  pooling_param {
    pool: AVE
    kernel_size: 3
    stride: 1
    pad: 1
  }
}
layer {
  name: "fc6_1"
  type: "Convolution"
  bottom: "pool5a"
  top: "fc6_1"
  param {
    lr_mult: 1
    decay_mult: 1
  }
  param {
    lr_mult: 2
    decay_mult: 0
  }
  convolution_param {
    num_output: 1024
    pad: 6
    kernel_size: 3
    dilation: 6
  }
}
layer {
  name: "relu6_1"
  type: "ReLU"
  bottom: "fc6_1"
  top: "fc6_1"
}
layer {
  name: "drop6_1"
  type: "Dropout"
  bottom: "fc6_1"
  top: "fc6_1"
  dropout_param {
    dropout_ratio: 0.5
  }
}
layer {
  name: "fc7_1"
  type: "Convolution"
  bottom: "fc6_1"
  top: "fc7_1"
  param {
    lr_mult: 1
    decay_mult: 1
  }
  param {
    lr_mult: 2
    decay_mult: 0
  }
  convolution_param {
    num_output: 1024
    kernel_size: 1
  }
}
layer {
  name: "relu7_1"
  type: "ReLU"
  bottom: "fc7_1"
  top: "fc7_1"
}
layer {
  name: "drop7_1"
  type: "Dropout"
  bottom: "fc7_1"
  top: "fc7_1"
  dropout_param {
    dropout_ratio: 0.5
  }
}
layer {
  name: "fc8-SEC_1"
  type: "Convolution"
  bottom: "fc7_1"
  top: "fc8-SEC_1"
  param {
    lr_mult: 10
    decay_mult: 1
  }
  param {
    lr_mult: 20
    decay_mult: 0
  }
  convolution_param {
    num_output: 21
    kernel_size: 1
    weight_filler {
      type: "gaussian"
      std: 0.01
    }
    bias_filler {
      type: "constant"
      value: 0
    }
  }
}
layer {
  name: "fc6_2"
  type: "Convolution"
  bottom: "pool5a"
  top: "fc6_2"
  param {
    lr_mult: 1
    decay_mult: 1
  }
  param {
    lr_mult: 2
    decay_mult: 0
  }
  convolution_param {
    num_output: 1024
    pad: 12
    kernel_size: 3
    dilation: 12
  }
}
layer {
  name: "relu6_2"
  type: "ReLU"
  bottom: "fc6_2"
  top: "fc6_2"
}
layer {
  name: "drop6_2"
  type: "Dropout"
  bottom: "fc6_2"
  top: "fc6_2"
  dropout_param {
    dropout_ratio: 0.5
  }
}
layer {
  name: "fc7_2"
  type: "Convolution"
  bottom: "fc6_2"
  top: "fc7_2"
  param {
    lr_mult: 1
    decay_mult: 1
  }
  param {
    lr_mult: 2
    decay_mult: 0
  }
  convolution_param {
    num_output: 1024
    kernel_size: 1
  }
}
layer {
  name: "relu7_2"
  type: "ReLU"
  bottom: "fc7_2"
  top: "fc7_2"
}
layer {
  name: "drop7_2"
  type: "Dropout"
  bottom: "fc7_2"
  top: "fc7_2"
  dropout_param {
    dropout_ratio: 0.5
  }
}
layer {
  name: "fc8-SEC_2"
  type: "Convolution"
  bottom: "fc7_2"
  top: "fc8-SEC_2"
  param {
    lr_mult: 10
    decay_mult: 1
  }
  param {
    lr_mult: 20
    decay_mult: 0
  }
  convolution_param {
    num_output: 21
    kernel_size: 1
    weight_filler {
      type: "gaussian"
      std: 0.01
    }
    bias_filler {
      type: "constant"
      value: 0
    }
  }
}
layer {
  name: "fc6_3"
  type: "Convolution"
  bottom: "pool5a"
  top: "fc6_3"
  param {
    lr_mult: 1
    decay_mult: 1
  }
  param {
    lr_mult: 2
    decay_mult: 0
  }
  convolution_param {
    num_output: 1024
    pad: 18
    kernel_size: 3
    dilation: 18
  }
}
layer {
  name: "relu6_3"
  type: "ReLU"
  bottom: "fc6_3"
  top: "fc6_3"
}
layer {
  name: "drop6_3"
  type: "Dropout"
  bottom: "fc6_3"
  top: "fc6_3"
  dropout_param {
    dropout_ratio: 0.5
  }
}
layer {
  name: "fc7_3"
  type: "Convolution"
  bottom: "fc6_3"
  top: "fc7_3"
  param {
    lr_mult: 1
    decay_mult: 1
  }
  param {
    lr_mult: 2
    decay_mult: 0
  }
  convolution_param {
    num_output: 1024
    kernel_size: 1
  }
}
layer {
  name: "relu7_3"
  type: "ReLU"
  bottom: "fc7_3"
  top: "fc7_3"
}
layer {
  name: "drop7_3"
  type: "Dropout"
  bottom: "fc7_3"
  top: "fc7_3"
  dropout_param {
    dropout_ratio: 0.5
  }
}
layer {
  name: "fc8-SEC_3"
  type: "Convolution"
  bottom: "fc7_3"
  top: "fc8-SEC_3"
  param {
    lr_mult: 10
    decay_mult: 1
  }
  param {
    lr_mult: 20
    decay_mult: 0
  }
  convolution_param {
    num_output: 21
    kernel_size: 1
    weight_filler {
      type: "gaussian"
      std: 0.01
    }
    bias_filler {
      type: "constant"
      value: 0
    }
  }
}
layer {
  name: "fc6_4"
  type: "Convolution"
  bottom: "pool5a"
  top: "fc6_4"
  param {
    lr_mult: 1
    decay_mult: 1
  }
  param {
    lr_mult: 2
    decay_mult: 0
  }
  convolution_param {
    num_output: 1024
    pad: 24
    kernel_size: 3
    dilation: 24
  }
}
layer {
  name: "relu6_4"
  type: "ReLU"
  bottom: "fc6_4"
  top: "fc6_4"
}
layer {
  name: "drop6_4"
  type: "Dropout"
  bottom: "fc6_4"
  top: "fc6_4"
  dropout_param {
    dropout_ratio: 0.5
  }
}
layer {
  name: "fc7_4"
  type: "Convolution"
  bottom: "fc6_4"
  top: "fc7_4"
  param {
    lr_mult: 1
    decay_mult: 1
  }
  param {
    lr_mult: 2
    decay_mult: 0
  }
  convolution_param {
    num_output: 1024
    kernel_size: 1
  }
}
layer {
  name: "relu7_4"
  type: "ReLU"
  bottom: "fc7_4"
  top: "fc7_4"
}
layer {
  name: "drop7_4"
  type: "Dropout"
  bottom: "fc7_4"
  top: "fc7_4"
  dropout_param {
    dropout_ratio: 0.5
  }
}
layer {
  name: "fc8-SEC_4"
  type: "Convolution"
  bottom: "fc7_4"
  top: "fc8-SEC_4"
  param {
    lr_mult: 10
    decay_mult: 1
  }
  param {
    lr_mult: 20
    decay_mult: 0
  }
  convolution_param {
    num_output: 21
    kernel_size: 1
    weight_filler {
      type: "gaussian"
      std: 0.01
    }
    bias_filler {
      type: "constant"
      value: 0
    }
  }
}
layer {
  name: "fc8-SEC"
  type: "Eltwise"
  bottom: "fc8-SEC_1"
  bottom: "fc8-SEC_2"
  bottom: "fc8-SEC_3"
  bottom: "fc8-SEC_4"
  top: "fc8-SEC"
  eltwise_param {
    operation: SUM
  }
}
I0312 16:34:32.594941 10704 net.cpp:413] Input 0 -> images
I0312 16:34:32.606333 10704 layer_factory.hpp:77] Creating layer conv1_1
I0312 16:34:32.606369 10704 net.cpp:106] Creating Layer conv1_1
I0312 16:34:32.606379 10704 net.cpp:454] conv1_1 <- images
I0312 16:34:32.606391 10704 net.cpp:411] conv1_1 -> conv1_1
I0312 16:34:32.607940 10704 net.cpp:150] Setting up conv1_1
I0312 16:34:32.607966 10704 net.cpp:157] Top shape: 1 64 321 321 (6594624)
I0312 16:34:32.607975 10704 net.cpp:165] Memory required for data: 26378496
I0312 16:34:32.607995 10704 layer_factory.hpp:77] Creating layer relu1_1
I0312 16:34:32.608011 10704 net.cpp:106] Creating Layer relu1_1
I0312 16:34:32.608022 10704 net.cpp:454] relu1_1 <- conv1_1
I0312 16:34:32.608032 10704 net.cpp:397] relu1_1 -> conv1_1 (in-place)
I0312 16:34:32.608045 10704 net.cpp:150] Setting up relu1_1
I0312 16:34:32.608055 10704 net.cpp:157] Top shape: 1 64 321 321 (6594624)
I0312 16:34:32.608062 10704 net.cpp:165] Memory required for data: 52756992
I0312 16:34:32.608070 10704 layer_factory.hpp:77] Creating layer conv1_2
I0312 16:34:32.608084 10704 net.cpp:106] Creating Layer conv1_2
I0312 16:34:32.608091 10704 net.cpp:454] conv1_2 <- conv1_1
I0312 16:34:32.608103 10704 net.cpp:411] conv1_2 -> conv1_2
I0312 16:34:32.609035 10704 net.cpp:150] Setting up conv1_2
I0312 16:34:32.609059 10704 net.cpp:157] Top shape: 1 64 321 321 (6594624)
I0312 16:34:32.609067 10704 net.cpp:165] Memory required for data: 79135488
I0312 16:34:32.609083 10704 layer_factory.hpp:77] Creating layer relu1_2
I0312 16:34:32.609094 10704 net.cpp:106] Creating Layer relu1_2
I0312 16:34:32.609103 10704 net.cpp:454] relu1_2 <- conv1_2
I0312 16:34:32.609115 10704 net.cpp:397] relu1_2 -> conv1_2 (in-place)
I0312 16:34:32.609127 10704 net.cpp:150] Setting up relu1_2
I0312 16:34:32.609135 10704 net.cpp:157] Top shape: 1 64 321 321 (6594624)
I0312 16:34:32.609143 10704 net.cpp:165] Memory required for data: 105513984
I0312 16:34:32.609149 10704 layer_factory.hpp:77] Creating layer pool1
I0312 16:34:32.609163 10704 net.cpp:106] Creating Layer pool1
I0312 16:34:32.609169 10704 net.cpp:454] pool1 <- conv1_2
I0312 16:34:32.609179 10704 net.cpp:411] pool1 -> pool1
I0312 16:34:32.609225 10704 net.cpp:150] Setting up pool1
I0312 16:34:32.609237 10704 net.cpp:157] Top shape: 1 64 161 161 (1658944)
I0312 16:34:32.609244 10704 net.cpp:165] Memory required for data: 112149760
I0312 16:34:32.609251 10704 layer_factory.hpp:77] Creating layer conv2_1
I0312 16:34:32.609266 10704 net.cpp:106] Creating Layer conv2_1
I0312 16:34:32.609273 10704 net.cpp:454] conv2_1 <- pool1
I0312 16:34:32.609284 10704 net.cpp:411] conv2_1 -> conv2_1
I0312 16:34:32.610177 10704 net.cpp:150] Setting up conv2_1
I0312 16:34:32.610203 10704 net.cpp:157] Top shape: 1 128 161 161 (3317888)
I0312 16:34:32.610211 10704 net.cpp:165] Memory required for data: 125421312
I0312 16:34:32.610226 10704 layer_factory.hpp:77] Creating layer relu2_1
I0312 16:34:32.610237 10704 net.cpp:106] Creating Layer relu2_1
I0312 16:34:32.610245 10704 net.cpp:454] relu2_1 <- conv2_1
I0312 16:34:32.610255 10704 net.cpp:397] relu2_1 -> conv2_1 (in-place)
I0312 16:34:32.610267 10704 net.cpp:150] Setting up relu2_1
I0312 16:34:32.610276 10704 net.cpp:157] Top shape: 1 128 161 161 (3317888)
I0312 16:34:32.610283 10704 net.cpp:165] Memory required for data: 138692864
I0312 16:34:32.610291 10704 layer_factory.hpp:77] Creating layer conv2_2
I0312 16:34:32.610303 10704 net.cpp:106] Creating Layer conv2_2
I0312 16:34:32.610311 10704 net.cpp:454] conv2_2 <- conv2_1
I0312 16:34:32.610322 10704 net.cpp:411] conv2_2 -> conv2_2
I0312 16:34:32.610671 10704 net.cpp:150] Setting up conv2_2
I0312 16:34:32.610688 10704 net.cpp:157] Top shape: 1 128 161 161 (3317888)
I0312 16:34:32.610697 10704 net.cpp:165] Memory required for data: 151964416
I0312 16:34:32.610709 10704 layer_factory.hpp:77] Creating layer relu2_2
I0312 16:34:32.610723 10704 net.cpp:106] Creating Layer relu2_2
I0312 16:34:32.610731 10704 net.cpp:454] relu2_2 <- conv2_2
I0312 16:34:32.610740 10704 net.cpp:397] relu2_2 -> conv2_2 (in-place)
I0312 16:34:32.610751 10704 net.cpp:150] Setting up relu2_2
I0312 16:34:32.610760 10704 net.cpp:157] Top shape: 1 128 161 161 (3317888)
I0312 16:34:32.610769 10704 net.cpp:165] Memory required for data: 165235968
I0312 16:34:32.610775 10704 layer_factory.hpp:77] Creating layer pool2
I0312 16:34:32.610785 10704 net.cpp:106] Creating Layer pool2
I0312 16:34:32.610793 10704 net.cpp:454] pool2 <- conv2_2
I0312 16:34:32.610801 10704 net.cpp:411] pool2 -> pool2
I0312 16:34:32.610846 10704 net.cpp:150] Setting up pool2
I0312 16:34:32.610857 10704 net.cpp:157] Top shape: 1 128 81 81 (839808)
I0312 16:34:32.610864 10704 net.cpp:165] Memory required for data: 168595200
I0312 16:34:32.610872 10704 layer_factory.hpp:77] Creating layer conv3_1
I0312 16:34:32.610884 10704 net.cpp:106] Creating Layer conv3_1
I0312 16:34:32.610893 10704 net.cpp:454] conv3_1 <- pool2
I0312 16:34:32.610901 10704 net.cpp:411] conv3_1 -> conv3_1
I0312 16:34:32.612596 10704 net.cpp:150] Setting up conv3_1
I0312 16:34:32.612619 10704 net.cpp:157] Top shape: 1 256 81 81 (1679616)
I0312 16:34:32.612627 10704 net.cpp:165] Memory required for data: 175313664
I0312 16:34:32.612643 10704 layer_factory.hpp:77] Creating layer relu3_1
I0312 16:34:32.612655 10704 net.cpp:106] Creating Layer relu3_1
I0312 16:34:32.612663 10704 net.cpp:454] relu3_1 <- conv3_1
I0312 16:34:32.612673 10704 net.cpp:397] relu3_1 -> conv3_1 (in-place)
I0312 16:34:32.612685 10704 net.cpp:150] Setting up relu3_1
I0312 16:34:32.612694 10704 net.cpp:157] Top shape: 1 256 81 81 (1679616)
I0312 16:34:32.612702 10704 net.cpp:165] Memory required for data: 182032128
I0312 16:34:32.612709 10704 layer_factory.hpp:77] Creating layer conv3_2
I0312 16:34:32.612721 10704 net.cpp:106] Creating Layer conv3_2
I0312 16:34:32.612730 10704 net.cpp:454] conv3_2 <- conv3_1
I0312 16:34:32.612738 10704 net.cpp:411] conv3_2 -> conv3_2
I0312 16:34:32.614452 10704 net.cpp:150] Setting up conv3_2
I0312 16:34:32.614475 10704 net.cpp:157] Top shape: 1 256 81 81 (1679616)
I0312 16:34:32.614485 10704 net.cpp:165] Memory required for data: 188750592
I0312 16:34:32.614495 10704 layer_factory.hpp:77] Creating layer relu3_2
I0312 16:34:32.614508 10704 net.cpp:106] Creating Layer relu3_2
I0312 16:34:32.614517 10704 net.cpp:454] relu3_2 <- conv3_2
I0312 16:34:32.614526 10704 net.cpp:397] relu3_2 -> conv3_2 (in-place)
I0312 16:34:32.614538 10704 net.cpp:150] Setting up relu3_2
I0312 16:34:32.614548 10704 net.cpp:157] Top shape: 1 256 81 81 (1679616)
I0312 16:34:32.614555 10704 net.cpp:165] Memory required for data: 195469056
I0312 16:34:32.614563 10704 layer_factory.hpp:77] Creating layer conv3_3
I0312 16:34:32.614573 10704 net.cpp:106] Creating Layer conv3_3
I0312 16:34:32.614581 10704 net.cpp:454] conv3_3 <- conv3_2
I0312 16:34:32.614593 10704 net.cpp:411] conv3_3 -> conv3_3
I0312 16:34:32.616328 10704 net.cpp:150] Setting up conv3_3
I0312 16:34:32.616350 10704 net.cpp:157] Top shape: 1 256 81 81 (1679616)
I0312 16:34:32.616359 10704 net.cpp:165] Memory required for data: 202187520
I0312 16:34:32.616371 10704 layer_factory.hpp:77] Creating layer relu3_3
I0312 16:34:32.616384 10704 net.cpp:106] Creating Layer relu3_3
I0312 16:34:32.616391 10704 net.cpp:454] relu3_3 <- conv3_3
I0312 16:34:32.616402 10704 net.cpp:397] relu3_3 -> conv3_3 (in-place)
I0312 16:34:32.616415 10704 net.cpp:150] Setting up relu3_3
I0312 16:34:32.616423 10704 net.cpp:157] Top shape: 1 256 81 81 (1679616)
I0312 16:34:32.616430 10704 net.cpp:165] Memory required for data: 208905984
I0312 16:34:32.616438 10704 layer_factory.hpp:77] Creating layer pool3
I0312 16:34:32.616449 10704 net.cpp:106] Creating Layer pool3
I0312 16:34:32.616457 10704 net.cpp:454] pool3 <- conv3_3
I0312 16:34:32.616466 10704 net.cpp:411] pool3 -> pool3
I0312 16:34:32.616511 10704 net.cpp:150] Setting up pool3
I0312 16:34:32.616523 10704 net.cpp:157] Top shape: 1 256 41 41 (430336)
I0312 16:34:32.616529 10704 net.cpp:165] Memory required for data: 210627328
I0312 16:34:32.616538 10704 layer_factory.hpp:77] Creating layer conv4_1
I0312 16:34:32.616549 10704 net.cpp:106] Creating Layer conv4_1
I0312 16:34:32.616557 10704 net.cpp:454] conv4_1 <- pool3
I0312 16:34:32.616569 10704 net.cpp:411] conv4_1 -> conv4_1
I0312 16:34:32.620102 10704 net.cpp:150] Setting up conv4_1
I0312 16:34:32.620128 10704 net.cpp:157] Top shape: 1 512 41 41 (860672)
I0312 16:34:32.620139 10704 net.cpp:165] Memory required for data: 214070016
I0312 16:34:32.620158 10704 layer_factory.hpp:77] Creating layer relu4_1
I0312 16:34:32.620177 10704 net.cpp:106] Creating Layer relu4_1
I0312 16:34:32.620187 10704 net.cpp:454] relu4_1 <- conv4_1
I0312 16:34:32.620198 10704 net.cpp:397] relu4_1 -> conv4_1 (in-place)
I0312 16:34:32.620213 10704 net.cpp:150] Setting up relu4_1
I0312 16:34:32.620226 10704 net.cpp:157] Top shape: 1 512 41 41 (860672)
I0312 16:34:32.620239 10704 net.cpp:165] Memory required for data: 217512704
I0312 16:34:32.620252 10704 layer_factory.hpp:77] Creating layer conv4_2
I0312 16:34:32.620271 10704 net.cpp:106] Creating Layer conv4_2
I0312 16:34:32.620281 10704 net.cpp:454] conv4_2 <- conv4_1
I0312 16:34:32.620302 10704 net.cpp:411] conv4_2 -> conv4_2
I0312 16:34:32.625466 10704 net.cpp:150] Setting up conv4_2
I0312 16:34:32.625488 10704 net.cpp:157] Top shape: 1 512 41 41 (860672)
I0312 16:34:32.625504 10704 net.cpp:165] Memory required for data: 220955392
I0312 16:34:32.625520 10704 layer_factory.hpp:77] Creating layer relu4_2
I0312 16:34:32.625531 10704 net.cpp:106] Creating Layer relu4_2
I0312 16:34:32.625540 10704 net.cpp:454] relu4_2 <- conv4_2
I0312 16:34:32.625550 10704 net.cpp:397] relu4_2 -> conv4_2 (in-place)
I0312 16:34:32.625561 10704 net.cpp:150] Setting up relu4_2
I0312 16:34:32.625571 10704 net.cpp:157] Top shape: 1 512 41 41 (860672)
I0312 16:34:32.625577 10704 net.cpp:165] Memory required for data: 224398080
I0312 16:34:32.625584 10704 layer_factory.hpp:77] Creating layer conv4_3
I0312 16:34:32.625597 10704 net.cpp:106] Creating Layer conv4_3
I0312 16:34:32.625604 10704 net.cpp:454] conv4_3 <- conv4_2
I0312 16:34:32.625615 10704 net.cpp:411] conv4_3 -> conv4_3
I0312 16:34:32.630647 10704 net.cpp:150] Setting up conv4_3
I0312 16:34:32.630671 10704 net.cpp:157] Top shape: 1 512 41 41 (860672)
I0312 16:34:32.630679 10704 net.cpp:165] Memory required for data: 227840768
I0312 16:34:32.630692 10704 layer_factory.hpp:77] Creating layer relu4_3
I0312 16:34:32.630702 10704 net.cpp:106] Creating Layer relu4_3
I0312 16:34:32.630710 10704 net.cpp:454] relu4_3 <- conv4_3
I0312 16:34:32.630720 10704 net.cpp:397] relu4_3 -> conv4_3 (in-place)
I0312 16:34:32.630731 10704 net.cpp:150] Setting up relu4_3
I0312 16:34:32.630740 10704 net.cpp:157] Top shape: 1 512 41 41 (860672)
I0312 16:34:32.630748 10704 net.cpp:165] Memory required for data: 231283456
I0312 16:34:32.630755 10704 layer_factory.hpp:77] Creating layer pool4
I0312 16:34:32.630765 10704 net.cpp:106] Creating Layer pool4
I0312 16:34:32.630772 10704 net.cpp:454] pool4 <- conv4_3
I0312 16:34:32.630781 10704 net.cpp:411] pool4 -> pool4
I0312 16:34:32.630825 10704 net.cpp:150] Setting up pool4
I0312 16:34:32.630836 10704 net.cpp:157] Top shape: 1 512 41 41 (860672)
I0312 16:34:32.630842 10704 net.cpp:165] Memory required for data: 234726144
I0312 16:34:32.630849 10704 layer_factory.hpp:77] Creating layer conv5_1
I0312 16:34:32.630864 10704 net.cpp:106] Creating Layer conv5_1
I0312 16:34:32.630872 10704 net.cpp:454] conv5_1 <- pool4
I0312 16:34:32.630882 10704 net.cpp:411] conv5_1 -> conv5_1
I0312 16:34:32.636039 10704 net.cpp:150] Setting up conv5_1
I0312 16:34:32.636071 10704 net.cpp:157] Top shape: 1 512 41 41 (860672)
I0312 16:34:32.636080 10704 net.cpp:165] Memory required for data: 238168832
I0312 16:34:32.636090 10704 layer_factory.hpp:77] Creating layer relu5_1
I0312 16:34:32.636101 10704 net.cpp:106] Creating Layer relu5_1
I0312 16:34:32.636111 10704 net.cpp:454] relu5_1 <- conv5_1
I0312 16:34:32.636122 10704 net.cpp:397] relu5_1 -> conv5_1 (in-place)
I0312 16:34:32.636133 10704 net.cpp:150] Setting up relu5_1
I0312 16:34:32.636142 10704 net.cpp:157] Top shape: 1 512 41 41 (860672)
I0312 16:34:32.636149 10704 net.cpp:165] Memory required for data: 241611520
I0312 16:34:32.636157 10704 layer_factory.hpp:77] Creating layer conv5_2
I0312 16:34:32.636169 10704 net.cpp:106] Creating Layer conv5_2
I0312 16:34:32.636178 10704 net.cpp:454] conv5_2 <- conv5_1
I0312 16:34:32.636185 10704 net.cpp:411] conv5_2 -> conv5_2
I0312 16:34:32.641113 10704 net.cpp:150] Setting up conv5_2
I0312 16:34:32.641136 10704 net.cpp:157] Top shape: 1 512 41 41 (860672)
I0312 16:34:32.641144 10704 net.cpp:165] Memory required for data: 245054208
I0312 16:34:32.641156 10704 layer_factory.hpp:77] Creating layer relu5_2
I0312 16:34:32.641168 10704 net.cpp:106] Creating Layer relu5_2
I0312 16:34:32.641177 10704 net.cpp:454] relu5_2 <- conv5_2
I0312 16:34:32.641186 10704 net.cpp:397] relu5_2 -> conv5_2 (in-place)
I0312 16:34:32.641197 10704 net.cpp:150] Setting up relu5_2
I0312 16:34:32.641206 10704 net.cpp:157] Top shape: 1 512 41 41 (860672)
I0312 16:34:32.641213 10704 net.cpp:165] Memory required for data: 248496896
I0312 16:34:32.641221 10704 layer_factory.hpp:77] Creating layer conv5_3
I0312 16:34:32.641233 10704 net.cpp:106] Creating Layer conv5_3
I0312 16:34:32.641242 10704 net.cpp:454] conv5_3 <- conv5_2
I0312 16:34:32.641252 10704 net.cpp:411] conv5_3 -> conv5_3
I0312 16:34:32.646245 10704 net.cpp:150] Setting up conv5_3
I0312 16:34:32.646267 10704 net.cpp:157] Top shape: 1 512 41 41 (860672)
I0312 16:34:32.646276 10704 net.cpp:165] Memory required for data: 251939584
I0312 16:34:32.646287 10704 layer_factory.hpp:77] Creating layer relu5_3
I0312 16:34:32.646307 10704 net.cpp:106] Creating Layer relu5_3
I0312 16:34:32.646315 10704 net.cpp:454] relu5_3 <- conv5_3
I0312 16:34:32.646325 10704 net.cpp:397] relu5_3 -> conv5_3 (in-place)
I0312 16:34:32.646337 10704 net.cpp:150] Setting up relu5_3
I0312 16:34:32.646345 10704 net.cpp:157] Top shape: 1 512 41 41 (860672)
I0312 16:34:32.646353 10704 net.cpp:165] Memory required for data: 255382272
I0312 16:34:32.646360 10704 layer_factory.hpp:77] Creating layer pool5
I0312 16:34:32.646370 10704 net.cpp:106] Creating Layer pool5
I0312 16:34:32.646378 10704 net.cpp:454] pool5 <- conv5_3
I0312 16:34:32.646387 10704 net.cpp:411] pool5 -> pool5
I0312 16:34:32.646432 10704 net.cpp:150] Setting up pool5
I0312 16:34:32.646442 10704 net.cpp:157] Top shape: 1 512 41 41 (860672)
I0312 16:34:32.646450 10704 net.cpp:165] Memory required for data: 258824960
I0312 16:34:32.646457 10704 layer_factory.hpp:77] Creating layer pool5a
I0312 16:34:32.646466 10704 net.cpp:106] Creating Layer pool5a
I0312 16:34:32.646473 10704 net.cpp:454] pool5a <- pool5
I0312 16:34:32.646484 10704 net.cpp:411] pool5a -> pool5a
I0312 16:34:32.646522 10704 net.cpp:150] Setting up pool5a
I0312 16:34:32.646533 10704 net.cpp:157] Top shape: 1 512 41 41 (860672)
I0312 16:34:32.646543 10704 net.cpp:165] Memory required for data: 262267648
I0312 16:34:32.646553 10704 layer_factory.hpp:77] Creating layer pool5a_pool5a_0_split
I0312 16:34:32.646580 10704 net.cpp:106] Creating Layer pool5a_pool5a_0_split
I0312 16:34:32.646589 10704 net.cpp:454] pool5a_pool5a_0_split <- pool5a
I0312 16:34:32.646600 10704 net.cpp:411] pool5a_pool5a_0_split -> pool5a_pool5a_0_split_0
I0312 16:34:32.646610 10704 net.cpp:411] pool5a_pool5a_0_split -> pool5a_pool5a_0_split_1
I0312 16:34:32.646621 10704 net.cpp:411] pool5a_pool5a_0_split -> pool5a_pool5a_0_split_2
I0312 16:34:32.646631 10704 net.cpp:411] pool5a_pool5a_0_split -> pool5a_pool5a_0_split_3
I0312 16:34:32.646692 10704 net.cpp:150] Setting up pool5a_pool5a_0_split
I0312 16:34:32.646703 10704 net.cpp:157] Top shape: 1 512 41 41 (860672)
I0312 16:34:32.646714 10704 net.cpp:157] Top shape: 1 512 41 41 (860672)
I0312 16:34:32.646723 10704 net.cpp:157] Top shape: 1 512 41 41 (860672)
I0312 16:34:32.646731 10704 net.cpp:157] Top shape: 1 512 41 41 (860672)
I0312 16:34:32.646740 10704 net.cpp:165] Memory required for data: 276038400
I0312 16:34:32.646749 10704 layer_factory.hpp:77] Creating layer fc6_1
I0312 16:34:32.646762 10704 net.cpp:106] Creating Layer fc6_1
I0312 16:34:32.646773 10704 net.cpp:454] fc6_1 <- pool5a_pool5a_0_split_0
I0312 16:34:32.646783 10704 net.cpp:411] fc6_1 -> fc6_1
I0312 16:34:32.656277 10704 net.cpp:150] Setting up fc6_1
I0312 16:34:32.656301 10704 net.cpp:157] Top shape: 1 1024 41 41 (1721344)
I0312 16:34:32.656309 10704 net.cpp:165] Memory required for data: 282923776
I0312 16:34:32.656321 10704 layer_factory.hpp:77] Creating layer relu6_1
I0312 16:34:32.656332 10704 net.cpp:106] Creating Layer relu6_1
I0312 16:34:32.656340 10704 net.cpp:454] relu6_1 <- fc6_1
I0312 16:34:32.656352 10704 net.cpp:397] relu6_1 -> fc6_1 (in-place)
I0312 16:34:32.656363 10704 net.cpp:150] Setting up relu6_1
I0312 16:34:32.656373 10704 net.cpp:157] Top shape: 1 1024 41 41 (1721344)
I0312 16:34:32.656380 10704 net.cpp:165] Memory required for data: 289809152
I0312 16:34:32.656388 10704 layer_factory.hpp:77] Creating layer drop6_1
I0312 16:34:32.656401 10704 net.cpp:106] Creating Layer drop6_1
I0312 16:34:32.656411 10704 net.cpp:454] drop6_1 <- fc6_1
I0312 16:34:32.656419 10704 net.cpp:397] drop6_1 -> fc6_1 (in-place)
I0312 16:34:32.656451 10704 net.cpp:150] Setting up drop6_1
I0312 16:34:32.656462 10704 net.cpp:157] Top shape: 1 1024 41 41 (1721344)
I0312 16:34:32.656469 10704 net.cpp:165] Memory required for data: 296694528
I0312 16:34:32.656476 10704 layer_factory.hpp:77] Creating layer fc7_1
I0312 16:34:32.656489 10704 net.cpp:106] Creating Layer fc7_1
I0312 16:34:32.656497 10704 net.cpp:454] fc7_1 <- fc6_1
I0312 16:34:32.656507 10704 net.cpp:411] fc7_1 -> fc7_1
I0312 16:34:32.658989 10704 net.cpp:150] Setting up fc7_1
I0312 16:34:32.659014 10704 net.cpp:157] Top shape: 1 1024 41 41 (1721344)
I0312 16:34:32.659023 10704 net.cpp:165] Memory required for data: 303579904
I0312 16:34:32.659034 10704 layer_factory.hpp:77] Creating layer relu7_1
I0312 16:34:32.659044 10704 net.cpp:106] Creating Layer relu7_1
I0312 16:34:32.659052 10704 net.cpp:454] relu7_1 <- fc7_1
I0312 16:34:32.659062 10704 net.cpp:397] relu7_1 -> fc7_1 (in-place)
I0312 16:34:32.659075 10704 net.cpp:150] Setting up relu7_1
I0312 16:34:32.659083 10704 net.cpp:157] Top shape: 1 1024 41 41 (1721344)
I0312 16:34:32.659090 10704 net.cpp:165] Memory required for data: 310465280
I0312 16:34:32.659097 10704 layer_factory.hpp:77] Creating layer drop7_1
I0312 16:34:32.659107 10704 net.cpp:106] Creating Layer drop7_1
I0312 16:34:32.659116 10704 net.cpp:454] drop7_1 <- fc7_1
I0312 16:34:32.659123 10704 net.cpp:397] drop7_1 -> fc7_1 (in-place)
I0312 16:34:32.659154 10704 net.cpp:150] Setting up drop7_1
I0312 16:34:32.659164 10704 net.cpp:157] Top shape: 1 1024 41 41 (1721344)
I0312 16:34:32.659171 10704 net.cpp:165] Memory required for data: 317350656
I0312 16:34:32.659178 10704 layer_factory.hpp:77] Creating layer fc8-SEC_1
I0312 16:34:32.659193 10704 net.cpp:106] Creating Layer fc8-SEC_1
I0312 16:34:32.659200 10704 net.cpp:454] fc8-SEC_1 <- fc7_1
I0312 16:34:32.659210 10704 net.cpp:411] fc8-SEC_1 -> fc8-SEC_1
I0312 16:34:32.660176 10704 net.cpp:150] Setting up fc8-SEC_1
I0312 16:34:32.660194 10704 net.cpp:157] Top shape: 1 21 41 41 (35301)
I0312 16:34:32.660202 10704 net.cpp:165] Memory required for data: 317491860
I0312 16:34:32.660213 10704 layer_factory.hpp:77] Creating layer fc6_2
I0312 16:34:32.660228 10704 net.cpp:106] Creating Layer fc6_2
I0312 16:34:32.660236 10704 net.cpp:454] fc6_2 <- pool5a_pool5a_0_split_1
I0312 16:34:32.660248 10704 net.cpp:411] fc6_2 -> fc6_2
I0312 16:34:32.671417 10704 net.cpp:150] Setting up fc6_2
I0312 16:34:32.671458 10704 net.cpp:157] Top shape: 1 1024 41 41 (1721344)
I0312 16:34:32.671468 10704 net.cpp:165] Memory required for data: 324377236
I0312 16:34:32.671489 10704 layer_factory.hpp:77] Creating layer relu6_2
I0312 16:34:32.671501 10704 net.cpp:106] Creating Layer relu6_2
I0312 16:34:32.671512 10704 net.cpp:454] relu6_2 <- fc6_2
I0312 16:34:32.671525 10704 net.cpp:397] relu6_2 -> fc6_2 (in-place)
I0312 16:34:32.671538 10704 net.cpp:150] Setting up relu6_2
I0312 16:34:32.671548 10704 net.cpp:157] Top shape: 1 1024 41 41 (1721344)
I0312 16:34:32.671556 10704 net.cpp:165] Memory required for data: 331262612
I0312 16:34:32.671563 10704 layer_factory.hpp:77] Creating layer drop6_2
I0312 16:34:32.671574 10704 net.cpp:106] Creating Layer drop6_2
I0312 16:34:32.671582 10704 net.cpp:454] drop6_2 <- fc6_2
I0312 16:34:32.671593 10704 net.cpp:397] drop6_2 -> fc6_2 (in-place)
I0312 16:34:32.671624 10704 net.cpp:150] Setting up drop6_2
I0312 16:34:32.671635 10704 net.cpp:157] Top shape: 1 1024 41 41 (1721344)
I0312 16:34:32.671644 10704 net.cpp:165] Memory required for data: 338147988
I0312 16:34:32.671651 10704 layer_factory.hpp:77] Creating layer fc7_2
I0312 16:34:32.671666 10704 net.cpp:106] Creating Layer fc7_2
I0312 16:34:32.671674 10704 net.cpp:454] fc7_2 <- fc6_2
I0312 16:34:32.671685 10704 net.cpp:411] fc7_2 -> fc7_2
I0312 16:34:32.674376 10704 net.cpp:150] Setting up fc7_2
I0312 16:34:32.674402 10704 net.cpp:157] Top shape: 1 1024 41 41 (1721344)
I0312 16:34:32.674412 10704 net.cpp:165] Memory required for data: 345033364
I0312 16:34:32.674423 10704 layer_factory.hpp:77] Creating layer relu7_2
I0312 16:34:32.674437 10704 net.cpp:106] Creating Layer relu7_2
I0312 16:34:32.674446 10704 net.cpp:454] relu7_2 <- fc7_2
I0312 16:34:32.674456 10704 net.cpp:397] relu7_2 -> fc7_2 (in-place)
I0312 16:34:32.674469 10704 net.cpp:150] Setting up relu7_2
I0312 16:34:32.674479 10704 net.cpp:157] Top shape: 1 1024 41 41 (1721344)
I0312 16:34:32.674487 10704 net.cpp:165] Memory required for data: 351918740
I0312 16:34:32.674494 10704 layer_factory.hpp:77] Creating layer drop7_2
I0312 16:34:32.674505 10704 net.cpp:106] Creating Layer drop7_2
I0312 16:34:32.674513 10704 net.cpp:454] drop7_2 <- fc7_2
I0312 16:34:32.674525 10704 net.cpp:397] drop7_2 -> fc7_2 (in-place)
I0312 16:34:32.674556 10704 net.cpp:150] Setting up drop7_2
I0312 16:34:32.674568 10704 net.cpp:157] Top shape: 1 1024 41 41 (1721344)
I0312 16:34:32.674576 10704 net.cpp:165] Memory required for data: 358804116
I0312 16:34:32.674584 10704 layer_factory.hpp:77] Creating layer fc8-SEC_2
I0312 16:34:32.674597 10704 net.cpp:106] Creating Layer fc8-SEC_2
I0312 16:34:32.674605 10704 net.cpp:454] fc8-SEC_2 <- fc7_2
I0312 16:34:32.674616 10704 net.cpp:411] fc8-SEC_2 -> fc8-SEC_2
I0312 16:34:32.675158 10704 net.cpp:150] Setting up fc8-SEC_2
I0312 16:34:32.675176 10704 net.cpp:157] Top shape: 1 21 41 41 (35301)
I0312 16:34:32.675185 10704 net.cpp:165] Memory required for data: 358945320
I0312 16:34:32.675196 10704 layer_factory.hpp:77] Creating layer fc6_3
I0312 16:34:32.675210 10704 net.cpp:106] Creating Layer fc6_3
I0312 16:34:32.675220 10704 net.cpp:454] fc6_3 <- pool5a_pool5a_0_split_2
I0312 16:34:32.675251 10704 net.cpp:411] fc6_3 -> fc6_3
I0312 16:34:32.684976 10704 net.cpp:150] Setting up fc6_3
I0312 16:34:32.684999 10704 net.cpp:157] Top shape: 1 1024 41 41 (1721344)
I0312 16:34:32.685007 10704 net.cpp:165] Memory required for data: 365830696
I0312 16:34:32.685019 10704 layer_factory.hpp:77] Creating layer relu6_3
I0312 16:34:32.685036 10704 net.cpp:106] Creating Layer relu6_3
I0312 16:34:32.685045 10704 net.cpp:454] relu6_3 <- fc6_3
I0312 16:34:32.685055 10704 net.cpp:397] relu6_3 -> fc6_3 (in-place)
I0312 16:34:32.685067 10704 net.cpp:150] Setting up relu6_3
I0312 16:34:32.685076 10704 net.cpp:157] Top shape: 1 1024 41 41 (1721344)
I0312 16:34:32.685083 10704 net.cpp:165] Memory required for data: 372716072
I0312 16:34:32.685091 10704 layer_factory.hpp:77] Creating layer drop6_3
I0312 16:34:32.685108 10704 net.cpp:106] Creating Layer drop6_3
I0312 16:34:32.685115 10704 net.cpp:454] drop6_3 <- fc6_3
I0312 16:34:32.685125 10704 net.cpp:397] drop6_3 -> fc6_3 (in-place)
I0312 16:34:32.685155 10704 net.cpp:150] Setting up drop6_3
I0312 16:34:32.685166 10704 net.cpp:157] Top shape: 1 1024 41 41 (1721344)
I0312 16:34:32.685173 10704 net.cpp:165] Memory required for data: 379601448
I0312 16:34:32.685181 10704 layer_factory.hpp:77] Creating layer fc7_3
I0312 16:34:32.685194 10704 net.cpp:106] Creating Layer fc7_3
I0312 16:34:32.685202 10704 net.cpp:454] fc7_3 <- fc6_3
I0312 16:34:32.685212 10704 net.cpp:411] fc7_3 -> fc7_3
I0312 16:34:32.687733 10704 net.cpp:150] Setting up fc7_3
I0312 16:34:32.687755 10704 net.cpp:157] Top shape: 1 1024 41 41 (1721344)
I0312 16:34:32.687763 10704 net.cpp:165] Memory required for data: 386486824
I0312 16:34:32.687774 10704 layer_factory.hpp:77] Creating layer relu7_3
I0312 16:34:32.687786 10704 net.cpp:106] Creating Layer relu7_3
I0312 16:34:32.687795 10704 net.cpp:454] relu7_3 <- fc7_3
I0312 16:34:32.687805 10704 net.cpp:397] relu7_3 -> fc7_3 (in-place)
I0312 16:34:32.687816 10704 net.cpp:150] Setting up relu7_3
I0312 16:34:32.687825 10704 net.cpp:157] Top shape: 1 1024 41 41 (1721344)
I0312 16:34:32.687832 10704 net.cpp:165] Memory required for data: 393372200
I0312 16:34:32.687839 10704 layer_factory.hpp:77] Creating layer drop7_3
I0312 16:34:32.687850 10704 net.cpp:106] Creating Layer drop7_3
I0312 16:34:32.687857 10704 net.cpp:454] drop7_3 <- fc7_3
I0312 16:34:32.687866 10704 net.cpp:397] drop7_3 -> fc7_3 (in-place)
I0312 16:34:32.687894 10704 net.cpp:150] Setting up drop7_3
I0312 16:34:32.687904 10704 net.cpp:157] Top shape: 1 1024 41 41 (1721344)
I0312 16:34:32.687911 10704 net.cpp:165] Memory required for data: 400257576
I0312 16:34:32.687918 10704 layer_factory.hpp:77] Creating layer fc8-SEC_3
I0312 16:34:32.687935 10704 net.cpp:106] Creating Layer fc8-SEC_3
I0312 16:34:32.687943 10704 net.cpp:454] fc8-SEC_3 <- fc7_3
I0312 16:34:32.687953 10704 net.cpp:411] fc8-SEC_3 -> fc8-SEC_3
I0312 16:34:32.688434 10704 net.cpp:150] Setting up fc8-SEC_3
I0312 16:34:32.688449 10704 net.cpp:157] Top shape: 1 21 41 41 (35301)
I0312 16:34:32.688457 10704 net.cpp:165] Memory required for data: 400398780
I0312 16:34:32.688467 10704 layer_factory.hpp:77] Creating layer fc6_4
I0312 16:34:32.688482 10704 net.cpp:106] Creating Layer fc6_4
I0312 16:34:32.688490 10704 net.cpp:454] fc6_4 <- pool5a_pool5a_0_split_3
I0312 16:34:32.688500 10704 net.cpp:411] fc6_4 -> fc6_4
I0312 16:34:32.698014 10704 net.cpp:150] Setting up fc6_4
I0312 16:34:32.698038 10704 net.cpp:157] Top shape: 1 1024 41 41 (1721344)
I0312 16:34:32.698055 10704 net.cpp:165] Memory required for data: 407284156
I0312 16:34:32.698066 10704 layer_factory.hpp:77] Creating layer relu6_4
I0312 16:34:32.698077 10704 net.cpp:106] Creating Layer relu6_4
I0312 16:34:32.698086 10704 net.cpp:454] relu6_4 <- fc6_4
I0312 16:34:32.698096 10704 net.cpp:397] relu6_4 -> fc6_4 (in-place)
I0312 16:34:32.698108 10704 net.cpp:150] Setting up relu6_4
I0312 16:34:32.698117 10704 net.cpp:157] Top shape: 1 1024 41 41 (1721344)
I0312 16:34:32.698124 10704 net.cpp:165] Memory required for data: 414169532
I0312 16:34:32.698132 10704 layer_factory.hpp:77] Creating layer drop6_4
I0312 16:34:32.698141 10704 net.cpp:106] Creating Layer drop6_4
I0312 16:34:32.698148 10704 net.cpp:454] drop6_4 <- fc6_4
I0312 16:34:32.698158 10704 net.cpp:397] drop6_4 -> fc6_4 (in-place)
I0312 16:34:32.698187 10704 net.cpp:150] Setting up drop6_4
I0312 16:34:32.698197 10704 net.cpp:157] Top shape: 1 1024 41 41 (1721344)
I0312 16:34:32.698204 10704 net.cpp:165] Memory required for data: 421054908
I0312 16:34:32.698211 10704 layer_factory.hpp:77] Creating layer fc7_4
I0312 16:34:32.698225 10704 net.cpp:106] Creating Layer fc7_4
I0312 16:34:32.698232 10704 net.cpp:454] fc7_4 <- fc6_4
I0312 16:34:32.698240 10704 net.cpp:411] fc7_4 -> fc7_4
I0312 16:34:32.700772 10704 net.cpp:150] Setting up fc7_4
I0312 16:34:32.700793 10704 net.cpp:157] Top shape: 1 1024 41 41 (1721344)
I0312 16:34:32.700801 10704 net.cpp:165] Memory required for data: 427940284
I0312 16:34:32.700814 10704 layer_factory.hpp:77] Creating layer relu7_4
I0312 16:34:32.700824 10704 net.cpp:106] Creating Layer relu7_4
I0312 16:34:32.700832 10704 net.cpp:454] relu7_4 <- fc7_4
I0312 16:34:32.700843 10704 net.cpp:397] relu7_4 -> fc7_4 (in-place)
I0312 16:34:32.700855 10704 net.cpp:150] Setting up relu7_4
I0312 16:34:32.700865 10704 net.cpp:157] Top shape: 1 1024 41 41 (1721344)
I0312 16:34:32.700871 10704 net.cpp:165] Memory required for data: 434825660
I0312 16:34:32.700878 10704 layer_factory.hpp:77] Creating layer drop7_4
I0312 16:34:32.700888 10704 net.cpp:106] Creating Layer drop7_4
I0312 16:34:32.700896 10704 net.cpp:454] drop7_4 <- fc7_4
I0312 16:34:32.700906 10704 net.cpp:397] drop7_4 -> fc7_4 (in-place)
I0312 16:34:32.700934 10704 net.cpp:150] Setting up drop7_4
I0312 16:34:32.700945 10704 net.cpp:157] Top shape: 1 1024 41 41 (1721344)
I0312 16:34:32.700953 10704 net.cpp:165] Memory required for data: 441711036
I0312 16:34:32.700959 10704 layer_factory.hpp:77] Creating layer fc8-SEC_4
I0312 16:34:32.700973 10704 net.cpp:106] Creating Layer fc8-SEC_4
I0312 16:34:32.700981 10704 net.cpp:454] fc8-SEC_4 <- fc7_4
I0312 16:34:32.700992 10704 net.cpp:411] fc8-SEC_4 -> fc8-SEC_4
I0312 16:34:32.701465 10704 net.cpp:150] Setting up fc8-SEC_4
I0312 16:34:32.701480 10704 net.cpp:157] Top shape: 1 21 41 41 (35301)
I0312 16:34:32.701488 10704 net.cpp:165] Memory required for data: 441852240
I0312 16:34:32.701498 10704 layer_factory.hpp:77] Creating layer fc8-SEC
I0312 16:34:32.701516 10704 net.cpp:106] Creating Layer fc8-SEC
I0312 16:34:32.701525 10704 net.cpp:454] fc8-SEC <- fc8-SEC_1
I0312 16:34:32.701534 10704 net.cpp:454] fc8-SEC <- fc8-SEC_2
I0312 16:34:32.701544 10704 net.cpp:454] fc8-SEC <- fc8-SEC_3
I0312 16:34:32.701550 10704 net.cpp:454] fc8-SEC <- fc8-SEC_4
I0312 16:34:32.701560 10704 net.cpp:411] fc8-SEC -> fc8-SEC
I0312 16:34:32.701591 10704 net.cpp:150] Setting up fc8-SEC
I0312 16:34:32.701601 10704 net.cpp:157] Top shape: 1 21 41 41 (35301)
I0312 16:34:32.701608 10704 net.cpp:165] Memory required for data: 441993444
I0312 16:34:32.701616 10704 net.cpp:228] fc8-SEC does not need backward computation.
I0312 16:34:32.701627 10704 net.cpp:228] fc8-SEC_4 does not need backward computation.
I0312 16:34:32.701634 10704 net.cpp:228] drop7_4 does not need backward computation.
I0312 16:34:32.701642 10704 net.cpp:228] relu7_4 does not need backward computation.
…
