…
I0226 12:57:58.173106  7672 solver.cpp:81] Creating training net from train_net file: train-s.prototxt
I0226 12:57:58.174748  7672 net.cpp:49] Initializing net from parameters:
name: "DSRG"
state {
  phase: TRAIN
}
layer {
  name: "Input"
  type: "ImageData"
  top: "images_origin"
  top: "image_ids"
  transform_param {
    mirror: false
    mean_value: 104
    mean_value: 117
    mean_value: 123
  }
  image_data_param {
    source: "list/input_list.txt"
    batch_size: 20
    shuffle: true
    new_height: 321
    new_width: 321
    root_folder: "/media/ssd1/austin/datasets/VOC/VOCdevkit/VOC2012/JPEGImages/"
  }
}
layer {
  name: "Annotation"
  type: "Python"
  bottom: "image_ids"
  bottom: "images_origin"
  top: "labels"
  top: "cues"
  top: "images"
  propagate_down: false
  propagate_down: false
  python_param {
    module: "pylayers"
    layer: "AnnotationLayer"
    param_str: "{\'cues\': \'localization_cues-sal.pickle\', \'mirror\': True}"
  }
}
layer {
  name: "conv1_1"
  type: "Convolution"
  bottom: "images"
  top: "conv1_1"
  param {
    lr_mult: 1
    decay_mult: 1
  }
  param {
    lr_mult: 2
    decay_mult: 0
  }
  convolution_param {
    num_output: 64
    pad: 1
    kernel_size: 3
  }
}
layer {
  name: "relu1_1"
  type: "ReLU"
  bottom: "conv1_1"
  top: "conv1_1"
}
layer {
  name: "conv1_2"
  type: "Convolution"
  bottom: "conv1_1"
  top: "conv1_2"
  param {
    lr_mult: 1
    decay_mult: 1
  }
  param {
    lr_mult: 2
    decay_mult: 0
  }
  convolution_param {
    num_output: 64
    pad: 1
    kernel_size: 3
  }
}
layer {
  name: "relu1_2"
  type: "ReLU"
  bottom: "conv1_2"
  top: "conv1_2"
}
layer {
  name: "pool1"
  type: "Pooling"
  bottom: "conv1_2"
  top: "pool1"
  pooling_param {
    pool: MAX
    kernel_size: 3
    stride: 2
    pad: 1
  }
}
layer {
  name: "conv2_1"
  type: "Convolution"
  bottom: "pool1"
  top: "conv2_1"
  param {
    lr_mult: 1
    decay_mult: 1
  }
  param {
    lr_mult: 2
    decay_mult: 0
  }
  convolution_param {
    num_output: 128
    pad: 1
    kernel_size: 3
  }
}
layer {
  name: "relu2_1"
  type: "ReLU"
  bottom: "conv2_1"
  top: "conv2_1"
}
layer {
  name: "conv2_2"
  type: "Convolution"
  bottom: "conv2_1"
  top: "conv2_2"
  param {
    lr_mult: 1
    decay_mult: 1
  }
  param {
    lr_mult: 2
    decay_mult: 0
  }
  convolution_param {
    num_output: 128
    pad: 1
    kernel_size: 3
  }
}
layer {
  name: "relu2_2"
  type: "ReLU"
  bottom: "conv2_2"
  top: "conv2_2"
}
layer {
  name: "pool2"
  type: "Pooling"
  bottom: "conv2_2"
  top: "pool2"
  pooling_param {
    pool: MAX
    kernel_size: 3
    stride: 2
    pad: 1
  }
}
layer {
  name: "conv3_1"
  type: "Convolution"
  bottom: "pool2"
  top: "conv3_1"
  param {
    lr_mult: 1
    decay_mult: 1
  }
  param {
    lr_mult: 2
    decay_mult: 0
  }
  convolution_param {
    num_output: 256
    pad: 1
    kernel_size: 3
  }
}
layer {
  name: "relu3_1"
  type: "ReLU"
  bottom: "conv3_1"
  top: "conv3_1"
}
layer {
  name: "conv3_2"
  type: "Convolution"
  bottom: "conv3_1"
  top: "conv3_2"
  param {
    lr_mult: 1
    decay_mult: 1
  }
  param {
    lr_mult: 2
    decay_mult: 0
  }
  convolution_param {
    num_output: 256
    pad: 1
    kernel_size: 3
  }
}
layer {
  name: "relu3_2"
  type: "ReLU"
  bottom: "conv3_2"
  top: "conv3_2"
}
layer {
  name: "conv3_3"
  type: "Convolution"
  bottom: "conv3_2"
  top: "conv3_3"
  param {
    lr_mult: 1
    decay_mult: 1
  }
  param {
    lr_mult: 2
    decay_mult: 0
  }
  convolution_param {
    num_output: 256
    pad: 1
    kernel_size: 3
  }
}
layer {
  name: "relu3_3"
  type: "ReLU"
  bottom: "conv3_3"
  top: "conv3_3"
}
layer {
  name: "pool3"
  type: "Pooling"
  bottom: "conv3_3"
  top: "pool3"
  pooling_param {
    pool: MAX
    kernel_size: 3
    stride: 2
    pad: 1
  }
}
layer {
  name: "conv4_1"
  type: "Convolution"
  bottom: "pool3"
  top: "conv4_1"
  param {
    lr_mult: 1
    decay_mult: 1
  }
  param {
    lr_mult: 2
    decay_mult: 0
  }
  convolution_param {
    num_output: 512
    pad: 1
    kernel_size: 3
  }
}
layer {
  name: "relu4_1"
  type: "ReLU"
  bottom: "conv4_1"
  top: "conv4_1"
}
layer {
  name: "conv4_2"
  type: "Convolution"
  bottom: "conv4_1"
  top: "conv4_2"
  param {
    lr_mult: 1
    decay_mult: 1
  }
  param {
    lr_mult: 2
    decay_mult: 0
  }
  convolution_param {
    num_output: 512
    pad: 1
    kernel_size: 3
  }
}
layer {
  name: "relu4_2"
  type: "ReLU"
  bottom: "conv4_2"
  top: "conv4_2"
}
layer {
  name: "conv4_3"
  type: "Convolution"
  bottom: "conv4_2"
  top: "conv4_3"
  param {
    lr_mult: 1
    decay_mult: 1
  }
  param {
    lr_mult: 2
    decay_mult: 0
  }
  convolution_param {
    num_output: 512
    pad: 1
    kernel_size: 3
  }
}
layer {
  name: "relu4_3"
  type: "ReLU"
  bottom: "conv4_3"
  top: "conv4_3"
}
layer {
  name: "pool4"
  type: "Pooling"
  bottom: "conv4_3"
  top: "pool4"
  pooling_param {
    pool: MAX
    kernel_size: 3
    stride: 1
    pad: 1
  }
}
layer {
  name: "conv5_1"
  type: "Convolution"
  bottom: "pool4"
  top: "conv5_1"
  param {
    lr_mult: 1
    decay_mult: 1
  }
  param {
    lr_mult: 2
    decay_mult: 0
  }
  convolution_param {
    num_output: 512
    pad: 2
    kernel_size: 3
    dilation: 2
  }
}
layer {
  name: "relu5_1"
  type: "ReLU"
  bottom: "conv5_1"
  top: "conv5_1"
}
layer {
  name: "conv5_2"
  type: "Convolution"
  bottom: "conv5_1"
  top: "conv5_2"
  param {
    lr_mult: 1
    decay_mult: 1
  }
  param {
    lr_mult: 2
    decay_mult: 0
  }
  convolution_param {
    num_output: 512
    pad: 2
    kernel_size: 3
    dilation: 2
  }
}
layer {
  name: "relu5_2"
  type: "ReLU"
  bottom: "conv5_2"
  top: "conv5_2"
}
layer {
  name: "conv5_3"
  type: "Convolution"
  bottom: "conv5_2"
  top: "conv5_3"
  param {
    lr_mult: 1
    decay_mult: 1
  }
  param {
    lr_mult: 2
    decay_mult: 0
  }
  convolution_param {
    num_output: 512
    pad: 2
    kernel_size: 3
    dilation: 2
  }
}
layer {
  name: "relu5_3"
  type: "ReLU"
  bottom: "conv5_3"
  top: "conv5_3"
}
layer {
  name: "pool5"
  type: "Pooling"
  bottom: "conv5_3"
  top: "pool5"
  pooling_param {
    pool: MAX
    kernel_size: 3
    stride: 1
    pad: 1
  }
}
layer {
  name: "pool5a"
  type: "Pooling"
  bottom: "pool5"
  top: "pool5a"
  pooling_param {
    pool: AVE
    kernel_size: 3
    stride: 1
    pad: 1
  }
}
layer {
  name: "fc6_1"
  type: "Convolution"
  bottom: "pool5a"
  top: "fc6_1"
  param {
    lr_mult: 1
    decay_mult: 1
  }
  param {
    lr_mult: 2
    decay_mult: 0
  }
  convolution_param {
    num_output: 1024
    pad: 6
    kernel_size: 3
    dilation: 6
  }
}
layer {
  name: "relu6_1"
  type: "ReLU"
  bottom: "fc6_1"
  top: "fc6_1"
}
layer {
  name: "drop6_1"
  type: "Dropout"
  bottom: "fc6_1"
  top: "fc6_1"
  dropout_param {
    dropout_ratio: 0.5
  }
}
layer {
  name: "fc7_1"
  type: "Convolution"
  bottom: "fc6_1"
  top: "fc7_1"
  param {
    lr_mult: 1
    decay_mult: 1
  }
  param {
    lr_mult: 2
    decay_mult: 0
  }
  convolution_param {
    num_output: 1024
    kernel_size: 1
  }
}
layer {
  name: "relu7_1"
  type: "ReLU"
  bottom: "fc7_1"
  top: "fc7_1"
}
layer {
  name: "drop7_1"
  type: "Dropout"
  bottom: "fc7_1"
  top: "fc7_1"
  dropout_param {
    dropout_ratio: 0.5
  }
}
layer {
  name: "fc8-SEC_1"
  type: "Convolution"
  bottom: "fc7_1"
  top: "fc8-SEC_1"
  param {
    lr_mult: 10
    decay_mult: 1
  }
  param {
    lr_mult: 20
    decay_mult: 0
  }
  convolution_param {
    num_output: 21
    kernel_size: 1
    weight_filler {
      type: "gaussian"
      std: 0.01
    }
    bias_filler {
      type: "constant"
      value: 0
    }
  }
}
layer {
  name: "fc6_2"
  type: "Convolution"
  bottom: "pool5a"
  top: "fc6_2"
  param {
    lr_mult: 1
    decay_mult: 1
  }
  param {
    lr_mult: 2
    decay_mult: 0
  }
  convolution_param {
    num_output: 1024
    pad: 12
    kernel_size: 3
    dilation: 12
  }
}
layer {
  name: "relu6_2"
  type: "ReLU"
  bottom: "fc6_2"
  top: "fc6_2"
}
layer {
  name: "drop6_2"
  type: "Dropout"
  bottom: "fc6_2"
  top: "fc6_2"
  dropout_param {
    dropout_ratio: 0.5
  }
}
layer {
  name: "fc7_2"
  type: "Convolution"
  bottom: "fc6_2"
  top: "fc7_2"
  param {
    lr_mult: 1
    decay_mult: 1
  }
  param {
    lr_mult: 2
    decay_mult: 0
  }
  convolution_param {
    num_output: 1024
    kernel_size: 1
  }
}
layer {
  name: "relu7_2"
  type: "ReLU"
  bottom: "fc7_2"
  top: "fc7_2"
}
layer {
  name: "drop7_2"
  type: "Dropout"
  bottom: "fc7_2"
  top: "fc7_2"
  dropout_param {
    dropout_ratio: 0.5
  }
}
layer {
  name: "fc8-SEC_2"
  type: "Convolution"
  bottom: "fc7_2"
  top: "fc8-SEC_2"
  param {
    lr_mult: 10
    decay_mult: 1
  }
  param {
    lr_mult: 20
    decay_mult: 0
  }
  convolution_param {
    num_output: 21
    kernel_size: 1
    weight_filler {
      type: "gaussian"
      std: 0.01
    }
    bias_filler {
      type: "constant"
      value: 0
    }
  }
}
layer {
  name: "fc6_3"
  type: "Convolution"
  bottom: "pool5a"
  top: "fc6_3"
  param {
    lr_mult: 1
    decay_mult: 1
  }
  param {
    lr_mult: 2
    decay_mult: 0
  }
  convolution_param {
    num_output: 1024
    pad: 18
    kernel_size: 3
    dilation: 18
  }
}
layer {
  name: "relu6_3"
  type: "ReLU"
  bottom: "fc6_3"
  top: "fc6_3"
}
layer {
  name: "drop6_3"
  type: "Dropout"
  bottom: "fc6_3"
  top: "fc6_3"
  dropout_param {
    dropout_ratio: 0.5
  }
}
layer {
  name: "fc7_3"
  type: "Convolution"
  bottom: "fc6_3"
  top: "fc7_3"
  param {
    lr_mult: 1
    decay_mult: 1
  }
  param {
    lr_mult: 2
    decay_mult: 0
  }
  convolution_param {
    num_output: 1024
    kernel_size: 1
  }
}
layer {
  name: "relu7_3"
  type: "ReLU"
  bottom: "fc7_3"
  top: "fc7_3"
}
layer {
  name: "drop7_3"
  type: "Dropout"
  bottom: "fc7_3"
  top: "fc7_3"
  dropout_param {
    dropout_ratio: 0.5
  }
}
layer {
  name: "fc8-SEC_3"
  type: "Convolution"
  bottom: "fc7_3"
  top: "fc8-SEC_3"
  param {
    lr_mult: 10
    decay_mult: 1
  }
  param {
    lr_mult: 20
    decay_mult: 0
  }
  convolution_param {
    num_output: 21
    kernel_size: 1
    weight_filler {
      type: "gaussian"
      std: 0.01
    }
    bias_filler {
      type: "constant"
      value: 0
    }
  }
}
layer {
  name: "fc6_4"
  type: "Convolution"
  bottom: "pool5a"
  top: "fc6_4"
  param {
    lr_mult: 1
    decay_mult: 1
  }
  param {
    lr_mult: 2
    decay_mult: 0
  }
  convolution_param {
    num_output: 1024
    pad: 24
    kernel_size: 3
    dilation: 24
  }
}
layer {
  name: "relu6_4"
  type: "ReLU"
  bottom: "fc6_4"
  top: "fc6_4"
}
layer {
  name: "drop6_4"
  type: "Dropout"
  bottom: "fc6_4"
  top: "fc6_4"
  dropout_param {
    dropout_ratio: 0.5
  }
}
layer {
  name: "fc7_4"
  type: "Convolution"
  bottom: "fc6_4"
  top: "fc7_4"
  param {
    lr_mult: 1
    decay_mult: 1
  }
  param {
    lr_mult: 2
    decay_mult: 0
  }
  convolution_param {
    num_output: 1024
    kernel_size: 1
  }
}
layer {
  name: "relu7_4"
  type: "ReLU"
  bottom: "fc7_4"
  top: "fc7_4"
}
layer {
  name: "drop7_4"
  type: "Dropout"
  bottom: "fc7_4"
  top: "fc7_4"
  dropout_param {
    dropout_ratio: 0.5
  }
}
layer {
  name: "fc8-SEC_4"
  type: "Convolution"
  bottom: "fc7_4"
  top: "fc8-SEC_4"
  param {
    lr_mult: 10
    decay_mult: 1
  }
  param {
    lr_mult: 20
    decay_mult: 0
  }
  convolution_param {
    num_output: 21
    kernel_size: 1
    weight_filler {
      type: "gaussian"
      std: 0.01
    }
    bias_filler {
      type: "constant"
      value: 0
    }
  }
}
layer {
  name: "fc8-SEC"
  type: "Eltwise"
  bottom: "fc8-SEC_1"
  bottom: "fc8-SEC_2"
  bottom: "fc8-SEC_3"
  bottom: "fc8-SEC_4"
  top: "fc8-SEC"
  eltwise_param {
    operation: SUM
  }
}
layer {
  name: "Softmax"
  type: "Python"
  bottom: "fc8-SEC"
  top: "fc8-SEC-Softmax"
  propagate_down: true
  python_param {
    module: "pylayers"
    layer: "SoftmaxLayer"
  }
}
layer {
  name: "CRF"
  type: "Python"
  bottom: "fc8-SEC-Softmax"
  bottom: "images"
  top: "fc8-SEC-CRF-log"
  propagate_down: true
  propagate_down: false
  python_param {
    module: "pylayers"
    layer: "CRFLayer"
  }
}
layer {
  name: "update-seed"
  type: "Python"
  bottom: "labels"
  bottom: "fc8-SEC-Softmax"
  bottom: "cues"
  bottom: "images"
  top: "cues-new"
  python_param {
    module: "pylayers"
    layer: "DSRGLayer"
    param_str: "{\'th1\': 0.99, \'th2\': 0.85}"
  }
}
layer {
  name: "loss-Seed"
  type: "Python"
  bottom: "fc8-SEC-Softmax"
  bottom: "cues-new"
  top: "loss-Seed"
  loss_weight: 1
  python_param {
    module: "pylayers"
    layer: "BalancedSeedLossLayer"
  }
}
layer {
  name: "loss-Constrain"
  type: "Python"
  bottom: "fc8-SEC-Softmax"
  bottom: "fc8-SEC-CRF-log"
  top: "loss-Constrain"
  loss_weight: 1
  python_param {
    module: "pylayers"
    layer: "ConstrainLossLayer"
  }
}
I0226 12:57:58.177682  7672 layer_factory.hpp:77] Creating layer Input
I0226 12:57:58.177718  7672 net.cpp:106] Creating Layer Input
I0226 12:57:58.177731  7672 net.cpp:411] Input -> images_origin
I0226 12:57:58.177752  7672 net.cpp:411] Input -> image_ids
I0226 12:57:58.177773  7672 image_data_layer.cpp:38] Opening file list/input_list.txt
I0226 12:57:58.182018  7672 image_data_layer.cpp:48] Shuffling data
I0226 12:57:58.182955  7672 image_data_layer.cpp:53] A total of 10582 images.
I0226 12:57:58.207993  7672 image_data_layer.cpp:80] output data size: 20,3,321,321
I0226 12:57:58.272689  7672 net.cpp:150] Setting up Input
I0226 12:57:58.272729  7672 net.cpp:157] Top shape: 20 3 321 321 (6182460)
I0226 12:57:58.272740  7672 net.cpp:157] Top shape: 20 (20)
I0226 12:57:58.272748  7672 net.cpp:165] Memory required for data: 24729920
I0226 12:57:58.272759  7672 layer_factory.hpp:77] Creating layer Annotation
I0226 12:57:58.544991  7672 net.cpp:106] Creating Layer Annotation
I0226 12:57:58.545038  7672 net.cpp:454] Annotation <- image_ids
I0226 12:57:58.545063  7672 net.cpp:454] Annotation <- images_origin
I0226 12:57:58.545083  7672 net.cpp:411] Annotation -> labels
I0226 12:57:58.545105  7672 net.cpp:411] Annotation -> cues
I0226 12:57:58.545123  7672 net.cpp:411] Annotation -> images
I0226 12:57:58.898331  7672 net.cpp:150] Setting up Annotation
I0226 12:57:58.898381  7672 net.cpp:157] Top shape: 20 1 1 21 (420)
I0226 12:57:58.898391  7672 net.cpp:157] Top shape: 20 21 41 41 (706020)
I0226 12:57:58.898399  7672 net.cpp:157] Top shape: 20 3 321 321 (6182460)
I0226 12:57:58.898406  7672 net.cpp:165] Memory required for data: 52285520
I0226 12:57:58.898417  7672 layer_factory.hpp:77] Creating layer images_Annotation_2_split
I0226 12:57:58.898435  7672 net.cpp:106] Creating Layer images_Annotation_2_split
I0226 12:57:58.898443  7672 net.cpp:454] images_Annotation_2_split <- images
I0226 12:57:58.898454  7672 net.cpp:411] images_Annotation_2_split -> images_Annotation_2_split_0
I0226 12:57:58.898468  7672 net.cpp:411] images_Annotation_2_split -> images_Annotation_2_split_1
I0226 12:57:58.898476  7672 net.cpp:411] images_Annotation_2_split -> images_Annotation_2_split_2
I0226 12:57:58.898521  7672 net.cpp:150] Setting up images_Annotation_2_split
I0226 12:57:58.898533  7672 net.cpp:157] Top shape: 20 3 321 321 (6182460)
I0226 12:57:58.898540  7672 net.cpp:157] Top shape: 20 3 321 321 (6182460)
I0226 12:57:58.898547  7672 net.cpp:157] Top shape: 20 3 321 321 (6182460)
I0226 12:57:58.898553  7672 net.cpp:165] Memory required for data: 126475040
I0226 12:57:58.898561  7672 layer_factory.hpp:77] Creating layer conv1_1
I0226 12:57:58.898576  7672 net.cpp:106] Creating Layer conv1_1
I0226 12:57:58.898581  7672 net.cpp:454] conv1_1 <- images_Annotation_2_split_0
I0226 12:57:58.898591  7672 net.cpp:411] conv1_1 -> conv1_1
I0226 12:57:58.900647  7672 net.cpp:150] Setting up conv1_1
I0226 12:57:58.900671  7672 net.cpp:157] Top shape: 20 64 321 321 (131892480)
I0226 12:57:58.900678  7672 net.cpp:165] Memory required for data: 654044960
I0226 12:57:58.900696  7672 layer_factory.hpp:77] Creating layer relu1_1
I0226 12:57:58.900708  7672 net.cpp:106] Creating Layer relu1_1
I0226 12:57:58.900715  7672 net.cpp:454] relu1_1 <- conv1_1
I0226 12:57:58.900724  7672 net.cpp:397] relu1_1 -> conv1_1 (in-place)
I0226 12:57:58.900737  7672 net.cpp:150] Setting up relu1_1
I0226 12:57:58.900743  7672 net.cpp:157] Top shape: 20 64 321 321 (131892480)
I0226 12:57:58.900750  7672 net.cpp:165] Memory required for data: 1181614880
I0226 12:57:58.900758  7672 layer_factory.hpp:77] Creating layer conv1_2
I0226 12:57:58.900768  7672 net.cpp:106] Creating Layer conv1_2
I0226 12:57:58.900774  7672 net.cpp:454] conv1_2 <- conv1_1
I0226 12:57:58.900781  7672 net.cpp:411] conv1_2 -> conv1_2
I0226 12:57:58.902256  7672 net.cpp:150] Setting up conv1_2
I0226 12:57:58.902292  7672 net.cpp:157] Top shape: 20 64 321 321 (131892480)
I0226 12:57:58.902299  7672 net.cpp:165] Memory required for data: 1709184800
I0226 12:57:58.902312  7672 layer_factory.hpp:77] Creating layer relu1_2
I0226 12:57:58.902321  7672 net.cpp:106] Creating Layer relu1_2
I0226 12:57:58.902328  7672 net.cpp:454] relu1_2 <- conv1_2
I0226 12:57:58.902336  7672 net.cpp:397] relu1_2 -> conv1_2 (in-place)
I0226 12:57:58.902345  7672 net.cpp:150] Setting up relu1_2
I0226 12:57:58.902353  7672 net.cpp:157] Top shape: 20 64 321 321 (131892480)
I0226 12:57:58.902359  7672 net.cpp:165] Memory required for data: 2236754720
I0226 12:57:58.902365  7672 layer_factory.hpp:77] Creating layer pool1
I0226 12:57:58.902376  7672 net.cpp:106] Creating Layer pool1
I0226 12:57:58.902384  7672 net.cpp:454] pool1 <- conv1_2
I0226 12:57:58.902390  7672 net.cpp:411] pool1 -> pool1
I0226 12:57:58.902429  7672 net.cpp:150] Setting up pool1
I0226 12:57:58.902439  7672 net.cpp:157] Top shape: 20 64 161 161 (33178880)
I0226 12:57:58.902446  7672 net.cpp:165] Memory required for data: 2369470240
I0226 12:57:58.902451  7672 layer_factory.hpp:77] Creating layer conv2_1
I0226 12:57:58.902462  7672 net.cpp:106] Creating Layer conv2_1
I0226 12:57:58.902469  7672 net.cpp:454] conv2_1 <- pool1
I0226 12:57:58.902478  7672 net.cpp:411] conv2_1 -> conv2_1
I0226 12:57:58.902703  7672 net.cpp:150] Setting up conv2_1
I0226 12:57:58.902715  7672 net.cpp:157] Top shape: 20 128 161 161 (66357760)
I0226 12:57:58.902722  7672 net.cpp:165] Memory required for data: 2634901280
I0226 12:57:58.902734  7672 layer_factory.hpp:77] Creating layer relu2_1
I0226 12:57:58.902741  7672 net.cpp:106] Creating Layer relu2_1
I0226 12:57:58.902748  7672 net.cpp:454] relu2_1 <- conv2_1
I0226 12:57:58.902756  7672 net.cpp:397] relu2_1 -> conv2_1 (in-place)
I0226 12:57:58.902765  7672 net.cpp:150] Setting up relu2_1
I0226 12:57:58.902771  7672 net.cpp:157] Top shape: 20 128 161 161 (66357760)
I0226 12:57:58.902778  7672 net.cpp:165] Memory required for data: 2900332320
I0226 12:57:58.902786  7672 layer_factory.hpp:77] Creating layer conv2_2
I0226 12:57:58.902794  7672 net.cpp:106] Creating Layer conv2_2
I0226 12:57:58.902801  7672 net.cpp:454] conv2_2 <- conv2_1
I0226 12:57:58.902809  7672 net.cpp:411] conv2_2 -> conv2_2
I0226 12:57:58.903120  7672 net.cpp:150] Setting up conv2_2
I0226 12:57:58.903133  7672 net.cpp:157] Top shape: 20 128 161 161 (66357760)
I0226 12:57:58.903141  7672 net.cpp:165] Memory required for data: 3165763360
I0226 12:57:58.903149  7672 layer_factory.hpp:77] Creating layer relu2_2
I0226 12:57:58.903157  7672 net.cpp:106] Creating Layer relu2_2
I0226 12:57:58.903163  7672 net.cpp:454] relu2_2 <- conv2_2
I0226 12:57:58.903172  7672 net.cpp:397] relu2_2 -> conv2_2 (in-place)
I0226 12:57:58.903179  7672 net.cpp:150] Setting up relu2_2
I0226 12:57:58.903187  7672 net.cpp:157] Top shape: 20 128 161 161 (66357760)
I0226 12:57:58.903192  7672 net.cpp:165] Memory required for data: 3431194400
I0226 12:57:58.903198  7672 layer_factory.hpp:77] Creating layer pool2
I0226 12:57:58.903206  7672 net.cpp:106] Creating Layer pool2
I0226 12:57:58.903213  7672 net.cpp:454] pool2 <- conv2_2
I0226 12:57:58.903220  7672 net.cpp:411] pool2 -> pool2
I0226 12:57:58.903252  7672 net.cpp:150] Setting up pool2
I0226 12:57:58.903261  7672 net.cpp:157] Top shape: 20 128 81 81 (16796160)
I0226 12:57:58.903267  7672 net.cpp:165] Memory required for data: 3498379040
I0226 12:57:58.903273  7672 layer_factory.hpp:77] Creating layer conv3_1
I0226 12:57:58.903283  7672 net.cpp:106] Creating Layer conv3_1
I0226 12:57:58.903290  7672 net.cpp:454] conv3_1 <- pool2
I0226 12:57:58.903297  7672 net.cpp:411] conv3_1 -> conv3_1
I0226 12:57:58.905934  7672 net.cpp:150] Setting up conv3_1
I0226 12:57:58.905961  7672 net.cpp:157] Top shape: 20 256 81 81 (33592320)
I0226 12:57:58.905969  7672 net.cpp:165] Memory required for data: 3632748320
I0226 12:57:58.905987  7672 layer_factory.hpp:77] Creating layer relu3_1
I0226 12:57:58.905997  7672 net.cpp:106] Creating Layer relu3_1
I0226 12:57:58.906006  7672 net.cpp:454] relu3_1 <- conv3_1
I0226 12:57:58.906018  7672 net.cpp:397] relu3_1 -> conv3_1 (in-place)
I0226 12:57:58.906029  7672 net.cpp:150] Setting up relu3_1
I0226 12:57:58.906052  7672 net.cpp:157] Top shape: 20 256 81 81 (33592320)
I0226 12:57:58.906080  7672 net.cpp:165] Memory required for data: 3767117600
I0226 12:57:58.906088  7672 layer_factory.hpp:77] Creating layer conv3_2
I0226 12:57:58.906103  7672 net.cpp:106] Creating Layer conv3_2
I0226 12:57:58.906112  7672 net.cpp:454] conv3_2 <- conv3_1
I0226 12:57:58.906123  7672 net.cpp:411] conv3_2 -> conv3_2
I0226 12:57:58.908140  7672 net.cpp:150] Setting up conv3_2
I0226 12:57:58.908171  7672 net.cpp:157] Top shape: 20 256 81 81 (33592320)
I0226 12:57:58.908185  7672 net.cpp:165] Memory required for data: 3901486880
I0226 12:57:58.908205  7672 layer_factory.hpp:77] Creating layer relu3_2
I0226 12:57:58.908224  7672 net.cpp:106] Creating Layer relu3_2
I0226 12:57:58.908237  7672 net.cpp:454] relu3_2 <- conv3_2
I0226 12:57:58.908253  7672 net.cpp:397] relu3_2 -> conv3_2 (in-place)
I0226 12:57:58.908272  7672 net.cpp:150] Setting up relu3_2
I0226 12:57:58.908288  7672 net.cpp:157] Top shape: 20 256 81 81 (33592320)
I0226 12:57:58.908300  7672 net.cpp:165] Memory required for data: 4035856160
I0226 12:57:58.908313  7672 layer_factory.hpp:77] Creating layer conv3_3
I0226 12:57:58.908334  7672 net.cpp:106] Creating Layer conv3_3
I0226 12:57:58.908347  7672 net.cpp:454] conv3_3 <- conv3_2
I0226 12:57:58.908365  7672 net.cpp:411] conv3_3 -> conv3_3
I0226 12:57:58.910333  7672 net.cpp:150] Setting up conv3_3
I0226 12:57:58.910359  7672 net.cpp:157] Top shape: 20 256 81 81 (33592320)
I0226 12:57:58.910368  7672 net.cpp:165] Memory required for data: 4170225440
I0226 12:57:58.910380  7672 layer_factory.hpp:77] Creating layer relu3_3
I0226 12:57:58.910395  7672 net.cpp:106] Creating Layer relu3_3
I0226 12:57:58.910404  7672 net.cpp:454] relu3_3 <- conv3_3
I0226 12:57:58.910415  7672 net.cpp:397] relu3_3 -> conv3_3 (in-place)
I0226 12:57:58.910428  7672 net.cpp:150] Setting up relu3_3
I0226 12:57:58.910437  7672 net.cpp:157] Top shape: 20 256 81 81 (33592320)
I0226 12:57:58.910445  7672 net.cpp:165] Memory required for data: 4304594720
I0226 12:57:58.910454  7672 layer_factory.hpp:77] Creating layer pool3
I0226 12:57:58.910464  7672 net.cpp:106] Creating Layer pool3
I0226 12:57:58.910471  7672 net.cpp:454] pool3 <- conv3_3
I0226 12:57:58.910482  7672 net.cpp:411] pool3 -> pool3
I0226 12:57:58.910542  7672 net.cpp:150] Setting up pool3
I0226 12:57:58.910557  7672 net.cpp:157] Top shape: 20 256 41 41 (8606720)
I0226 12:57:58.910565  7672 net.cpp:165] Memory required for data: 4339021600
I0226 12:57:58.910573  7672 layer_factory.hpp:77] Creating layer conv4_1
I0226 12:57:58.910588  7672 net.cpp:106] Creating Layer conv4_1
I0226 12:57:58.910596  7672 net.cpp:454] conv4_1 <- pool3
I0226 12:57:58.910609  7672 net.cpp:411] conv4_1 -> conv4_1
I0226 12:57:58.914850  7672 net.cpp:150] Setting up conv4_1
I0226 12:57:58.914909  7672 net.cpp:157] Top shape: 20 512 41 41 (17213440)
I0226 12:57:58.914927  7672 net.cpp:165] Memory required for data: 4407875360
I0226 12:57:58.914947  7672 layer_factory.hpp:77] Creating layer relu4_1
I0226 12:57:58.914963  7672 net.cpp:106] Creating Layer relu4_1
I0226 12:57:58.914978  7672 net.cpp:454] relu4_1 <- conv4_1
I0226 12:57:58.914994  7672 net.cpp:397] relu4_1 -> conv4_1 (in-place)
I0226 12:57:58.915012  7672 net.cpp:150] Setting up relu4_1
I0226 12:57:58.915027  7672 net.cpp:157] Top shape: 20 512 41 41 (17213440)
I0226 12:57:58.915040  7672 net.cpp:165] Memory required for data: 4476729120
I0226 12:57:58.915053  7672 layer_factory.hpp:77] Creating layer conv4_2
I0226 12:57:58.915074  7672 net.cpp:106] Creating Layer conv4_2
I0226 12:57:58.915089  7672 net.cpp:454] conv4_2 <- conv4_1
I0226 12:57:58.915105  7672 net.cpp:411] conv4_2 -> conv4_2
I0226 12:57:58.920092  7672 net.cpp:150] Setting up conv4_2
I0226 12:57:58.920128  7672 net.cpp:157] Top shape: 20 512 41 41 (17213440)
I0226 12:57:58.920135  7672 net.cpp:165] Memory required for data: 4545582880
I0226 12:57:58.920151  7672 layer_factory.hpp:77] Creating layer relu4_2
I0226 12:57:58.920161  7672 net.cpp:106] Creating Layer relu4_2
I0226 12:57:58.920168  7672 net.cpp:454] relu4_2 <- conv4_2
I0226 12:57:58.920176  7672 net.cpp:397] relu4_2 -> conv4_2 (in-place)
I0226 12:57:58.920186  7672 net.cpp:150] Setting up relu4_2
I0226 12:57:58.920192  7672 net.cpp:157] Top shape: 20 512 41 41 (17213440)
I0226 12:57:58.920198  7672 net.cpp:165] Memory required for data: 4614436640
I0226 12:57:58.920204  7672 layer_factory.hpp:77] Creating layer conv4_3
I0226 12:57:58.920214  7672 net.cpp:106] Creating Layer conv4_3
I0226 12:57:58.920222  7672 net.cpp:454] conv4_3 <- conv4_2
I0226 12:57:58.920230  7672 net.cpp:411] conv4_3 -> conv4_3
I0226 12:57:58.925249  7672 net.cpp:150] Setting up conv4_3
I0226 12:57:58.925271  7672 net.cpp:157] Top shape: 20 512 41 41 (17213440)
I0226 12:57:58.925277  7672 net.cpp:165] Memory required for data: 4683290400
I0226 12:57:58.925287  7672 layer_factory.hpp:77] Creating layer relu4_3
I0226 12:57:58.925299  7672 net.cpp:106] Creating Layer relu4_3
I0226 12:57:58.925307  7672 net.cpp:454] relu4_3 <- conv4_3
I0226 12:57:58.925315  7672 net.cpp:397] relu4_3 -> conv4_3 (in-place)
I0226 12:57:58.925325  7672 net.cpp:150] Setting up relu4_3
I0226 12:57:58.925333  7672 net.cpp:157] Top shape: 20 512 41 41 (17213440)
I0226 12:57:58.925338  7672 net.cpp:165] Memory required for data: 4752144160
I0226 12:57:58.925356  7672 layer_factory.hpp:77] Creating layer pool4
I0226 12:57:58.925365  7672 net.cpp:106] Creating Layer pool4
I0226 12:57:58.925371  7672 net.cpp:454] pool4 <- conv4_3
I0226 12:57:58.925379  7672 net.cpp:411] pool4 -> pool4
I0226 12:57:58.925416  7672 net.cpp:150] Setting up pool4
I0226 12:57:58.925426  7672 net.cpp:157] Top shape: 20 512 41 41 (17213440)
I0226 12:57:58.925433  7672 net.cpp:165] Memory required for data: 4820997920
I0226 12:57:58.925439  7672 layer_factory.hpp:77] Creating layer conv5_1
I0226 12:57:58.925451  7672 net.cpp:106] Creating Layer conv5_1
I0226 12:57:58.925457  7672 net.cpp:454] conv5_1 <- pool4
I0226 12:57:58.925465  7672 net.cpp:411] conv5_1 -> conv5_1
I0226 12:57:58.931324  7672 net.cpp:150] Setting up conv5_1
I0226 12:57:58.931358  7672 net.cpp:157] Top shape: 20 512 41 41 (17213440)
I0226 12:57:58.931365  7672 net.cpp:165] Memory required for data: 4889851680
I0226 12:57:58.931375  7672 layer_factory.hpp:77] Creating layer relu5_1
I0226 12:57:58.931385  7672 net.cpp:106] Creating Layer relu5_1
I0226 12:57:58.931392  7672 net.cpp:454] relu5_1 <- conv5_1
I0226 12:57:58.931401  7672 net.cpp:397] relu5_1 -> conv5_1 (in-place)
I0226 12:57:58.931411  7672 net.cpp:150] Setting up relu5_1
I0226 12:57:58.931418  7672 net.cpp:157] Top shape: 20 512 41 41 (17213440)
I0226 12:57:58.931424  7672 net.cpp:165] Memory required for data: 4958705440
I0226 12:57:58.931432  7672 layer_factory.hpp:77] Creating layer conv5_2
I0226 12:57:58.931443  7672 net.cpp:106] Creating Layer conv5_2
I0226 12:57:58.931450  7672 net.cpp:454] conv5_2 <- conv5_1
I0226 12:57:58.931458  7672 net.cpp:411] conv5_2 -> conv5_2
I0226 12:57:58.936849  7672 net.cpp:150] Setting up conv5_2
I0226 12:57:58.936885  7672 net.cpp:157] Top shape: 20 512 41 41 (17213440)
I0226 12:57:58.936892  7672 net.cpp:165] Memory required for data: 5027559200
I0226 12:57:58.936903  7672 layer_factory.hpp:77] Creating layer relu5_2
I0226 12:57:58.936913  7672 net.cpp:106] Creating Layer relu5_2
I0226 12:57:58.936921  7672 net.cpp:454] relu5_2 <- conv5_2
I0226 12:57:58.936931  7672 net.cpp:397] relu5_2 -> conv5_2 (in-place)
I0226 12:57:58.936942  7672 net.cpp:150] Setting up relu5_2
I0226 12:57:58.936950  7672 net.cpp:157] Top shape: 20 512 41 41 (17213440)
I0226 12:57:58.936962  7672 net.cpp:165] Memory required for data: 5096412960
I0226 12:57:58.936974  7672 layer_factory.hpp:77] Creating layer conv5_3
I0226 12:57:58.936985  7672 net.cpp:106] Creating Layer conv5_3
I0226 12:57:58.936993  7672 net.cpp:454] conv5_3 <- conv5_2
I0226 12:57:58.937008  7672 net.cpp:411] conv5_3 -> conv5_3
I0226 12:57:58.943507  7672 net.cpp:150] Setting up conv5_3
I0226 12:57:58.943536  7672 net.cpp:157] Top shape: 20 512 41 41 (17213440)
I0226 12:57:58.943545  7672 net.cpp:165] Memory required for data: 5165266720
I0226 12:57:58.943559  7672 layer_factory.hpp:77] Creating layer relu5_3
I0226 12:57:58.943576  7672 net.cpp:106] Creating Layer relu5_3
I0226 12:57:58.943586  7672 net.cpp:454] relu5_3 <- conv5_3
I0226 12:57:58.943598  7672 net.cpp:397] relu5_3 -> conv5_3 (in-place)
I0226 12:57:58.943611  7672 net.cpp:150] Setting up relu5_3
I0226 12:57:58.943621  7672 net.cpp:157] Top shape: 20 512 41 41 (17213440)
I0226 12:57:58.943629  7672 net.cpp:165] Memory required for data: 5234120480
I0226 12:57:58.943637  7672 layer_factory.hpp:77] Creating layer pool5
I0226 12:57:58.943662  7672 net.cpp:106] Creating Layer pool5
I0226 12:57:58.943675  7672 net.cpp:454] pool5 <- conv5_3
I0226 12:57:58.943686  7672 net.cpp:411] pool5 -> pool5
I0226 12:57:58.943734  7672 net.cpp:150] Setting up pool5
I0226 12:57:58.943748  7672 net.cpp:157] Top shape: 20 512 41 41 (17213440)
I0226 12:57:58.943758  7672 net.cpp:165] Memory required for data: 5302974240
I0226 12:57:58.943766  7672 layer_factory.hpp:77] Creating layer pool5a
I0226 12:57:58.943776  7672 net.cpp:106] Creating Layer pool5a
I0226 12:57:58.943785  7672 net.cpp:454] pool5a <- pool5
I0226 12:57:58.943795  7672 net.cpp:411] pool5a -> pool5a
I0226 12:57:58.943825  7672 net.cpp:150] Setting up pool5a
I0226 12:57:58.943835  7672 net.cpp:157] Top shape: 20 512 41 41 (17213440)
I0226 12:57:58.943845  7672 net.cpp:165] Memory required for data: 5371828000
I0226 12:57:58.943856  7672 layer_factory.hpp:77] Creating layer pool5a_pool5a_0_split
I0226 12:57:58.943869  7672 net.cpp:106] Creating Layer pool5a_pool5a_0_split
I0226 12:57:58.943878  7672 net.cpp:454] pool5a_pool5a_0_split <- pool5a
I0226 12:57:58.943888  7672 net.cpp:411] pool5a_pool5a_0_split -> pool5a_pool5a_0_split_0
I0226 12:57:58.943902  7672 net.cpp:411] pool5a_pool5a_0_split -> pool5a_pool5a_0_split_1
I0226 12:57:58.943912  7672 net.cpp:411] pool5a_pool5a_0_split -> pool5a_pool5a_0_split_2
I0226 12:57:58.943934  7672 net.cpp:411] pool5a_pool5a_0_split -> pool5a_pool5a_0_split_3
I0226 12:57:58.943998  7672 net.cpp:150] Setting up pool5a_pool5a_0_split
I0226 12:57:58.944010  7672 net.cpp:157] Top shape: 20 512 41 41 (17213440)
I0226 12:57:58.944020  7672 net.cpp:157] Top shape: 20 512 41 41 (17213440)
I0226 12:57:58.944030  7672 net.cpp:157] Top shape: 20 512 41 41 (17213440)
I0226 12:57:58.944039  7672 net.cpp:157] Top shape: 20 512 41 41 (17213440)
I0226 12:57:58.944047  7672 net.cpp:165] Memory required for data: 5647243040
I0226 12:57:58.944056  7672 layer_factory.hpp:77] Creating layer fc6_1
I0226 12:57:58.944069  7672 net.cpp:106] Creating Layer fc6_1
I0226 12:57:58.944078  7672 net.cpp:454] fc6_1 <- pool5a_pool5a_0_split_0
I0226 12:57:58.944090  7672 net.cpp:411] fc6_1 -> fc6_1
I0226 12:57:58.958226  7672 net.cpp:150] Setting up fc6_1
I0226 12:57:58.958259  7672 net.cpp:157] Top shape: 20 1024 41 41 (34426880)
I0226 12:57:58.958269  7672 net.cpp:165] Memory required for data: 5784950560
I0226 12:57:58.958283  7672 layer_factory.hpp:77] Creating layer relu6_1
I0226 12:57:58.958300  7672 net.cpp:106] Creating Layer relu6_1
I0226 12:57:58.958312  7672 net.cpp:454] relu6_1 <- fc6_1
I0226 12:57:58.958323  7672 net.cpp:397] relu6_1 -> fc6_1 (in-place)
I0226 12:57:58.958336  7672 net.cpp:150] Setting up relu6_1
I0226 12:57:58.958346  7672 net.cpp:157] Top shape: 20 1024 41 41 (34426880)
I0226 12:57:58.958355  7672 net.cpp:165] Memory required for data: 5922658080
I0226 12:57:58.958364  7672 layer_factory.hpp:77] Creating layer drop6_1
I0226 12:57:58.958380  7672 net.cpp:106] Creating Layer drop6_1
I0226 12:57:58.958389  7672 net.cpp:454] drop6_1 <- fc6_1
I0226 12:57:58.958400  7672 net.cpp:397] drop6_1 -> fc6_1 (in-place)
I0226 12:57:58.958436  7672 net.cpp:150] Setting up drop6_1
I0226 12:57:58.958456  7672 net.cpp:157] Top shape: 20 1024 41 41 (34426880)
I0226 12:57:58.958465  7672 net.cpp:165] Memory required for data: 6060365600
I0226 12:57:58.958474  7672 layer_factory.hpp:77] Creating layer fc7_1
I0226 12:57:58.958488  7672 net.cpp:106] Creating Layer fc7_1
I0226 12:57:58.958497  7672 net.cpp:454] fc7_1 <- fc6_1
I0226 12:57:58.958508  7672 net.cpp:411] fc7_1 -> fc7_1
I0226 12:57:58.966336  7672 net.cpp:150] Setting up fc7_1
I0226 12:57:58.966389  7672 net.cpp:157] Top shape: 20 1024 41 41 (34426880)
I0226 12:57:58.966411  7672 net.cpp:165] Memory required for data: 6198073120
I0226 12:57:58.966441  7672 layer_factory.hpp:77] Creating layer relu7_1
I0226 12:57:58.966466  7672 net.cpp:106] Creating Layer relu7_1
I0226 12:57:58.966488  7672 net.cpp:454] relu7_1 <- fc7_1
I0226 12:57:58.966514  7672 net.cpp:397] relu7_1 -> fc7_1 (in-place)
I0226 12:57:58.966536  7672 net.cpp:150] Setting up relu7_1
I0226 12:57:58.966552  7672 net.cpp:157] Top shape: 20 1024 41 41 (34426880)
I0226 12:57:58.966573  7672 net.cpp:165] Memory required for data: 6335780640
I0226 12:57:58.966593  7672 layer_factory.hpp:77] Creating layer drop7_1
I0226 12:57:58.966620  7672 net.cpp:106] Creating Layer drop7_1
I0226 12:57:58.966637  7672 net.cpp:454] drop7_1 <- fc7_1
I0226 12:57:58.966652  7672 net.cpp:397] drop7_1 -> fc7_1 (in-place)
I0226 12:57:58.966703  7672 net.cpp:150] Setting up drop7_1
I0226 12:57:58.966723  7672 net.cpp:157] Top shape: 20 1024 41 41 (34426880)
I0226 12:57:58.966737  7672 net.cpp:165] Memory required for data: 6473488160
I0226 12:57:58.966750  7672 layer_factory.hpp:77] Creating layer fc8-SEC_1
I0226 12:57:58.966770  7672 net.cpp:106] Creating Layer fc8-SEC_1
I0226 12:57:58.966784  7672 net.cpp:454] fc8-SEC_1 <- fc7_1
I0226 12:57:58.966800  7672 net.cpp:411] fc8-SEC_1 -> fc8-SEC_1
I0226 12:57:58.967643  7672 net.cpp:150] Setting up fc8-SEC_1
I0226 12:57:58.967669  7672 net.cpp:157] Top shape: 20 21 41 41 (706020)
I0226 12:57:58.967681  7672 net.cpp:165] Memory required for data: 6476312240
I0226 12:57:58.967700  7672 layer_factory.hpp:77] Creating layer fc6_2
I0226 12:57:58.967717  7672 net.cpp:106] Creating Layer fc6_2
I0226 12:57:58.967731  7672 net.cpp:454] fc6_2 <- pool5a_pool5a_0_split_1
I0226 12:57:58.967748  7672 net.cpp:411] fc6_2 -> fc6_2
I0226 12:57:58.980681  7672 net.cpp:150] Setting up fc6_2
I0226 12:57:58.980707  7672 net.cpp:157] Top shape: 20 1024 41 41 (34426880)
I0226 12:57:58.980717  7672 net.cpp:165] Memory required for data: 6614019760
I0226 12:57:58.980737  7672 layer_factory.hpp:77] Creating layer relu6_2
I0226 12:57:58.980758  7672 net.cpp:106] Creating Layer relu6_2
I0226 12:57:58.980773  7672 net.cpp:454] relu6_2 <- fc6_2
I0226 12:57:58.980792  7672 net.cpp:397] relu6_2 -> fc6_2 (in-place)
I0226 12:57:58.980818  7672 net.cpp:150] Setting up relu6_2
I0226 12:57:58.980839  7672 net.cpp:157] Top shape: 20 1024 41 41 (34426880)
I0226 12:57:58.980862  7672 net.cpp:165] Memory required for data: 6751727280
I0226 12:57:58.980878  7672 layer_factory.hpp:77] Creating layer drop6_2
I0226 12:57:58.980893  7672 net.cpp:106] Creating Layer drop6_2
I0226 12:57:58.980906  7672 net.cpp:454] drop6_2 <- fc6_2
I0226 12:57:58.980923  7672 net.cpp:397] drop6_2 -> fc6_2 (in-place)
I0226 12:57:58.980967  7672 net.cpp:150] Setting up drop6_2
I0226 12:57:58.980983  7672 net.cpp:157] Top shape: 20 1024 41 41 (34426880)
I0226 12:57:58.980998  7672 net.cpp:165] Memory required for data: 6889434800
I0226 12:57:58.981010  7672 layer_factory.hpp:77] Creating layer fc7_2
I0226 12:57:58.981029  7672 net.cpp:106] Creating Layer fc7_2
I0226 12:57:58.981041  7672 net.cpp:454] fc7_2 <- fc6_2
I0226 12:57:58.981056  7672 net.cpp:411] fc7_2 -> fc7_2
I0226 12:57:58.985816  7672 net.cpp:150] Setting up fc7_2
I0226 12:57:58.985843  7672 net.cpp:157] Top shape: 20 1024 41 41 (34426880)
I0226 12:57:58.985853  7672 net.cpp:165] Memory required for data: 7027142320
I0226 12:57:58.985867  7672 layer_factory.hpp:77] Creating layer relu7_2
I0226 12:57:58.985880  7672 net.cpp:106] Creating Layer relu7_2
I0226 12:57:58.985890  7672 net.cpp:454] relu7_2 <- fc7_2
I0226 12:57:58.985901  7672 net.cpp:397] relu7_2 -> fc7_2 (in-place)
I0226 12:57:58.985914  7672 net.cpp:150] Setting up relu7_2
I0226 12:57:58.985924  7672 net.cpp:157] Top shape: 20 1024 41 41 (34426880)
I0226 12:57:58.985932  7672 net.cpp:165] Memory required for data: 7164849840
I0226 12:57:58.985940  7672 layer_factory.hpp:77] Creating layer drop7_2
I0226 12:57:58.985951  7672 net.cpp:106] Creating Layer drop7_2
I0226 12:57:58.985960  7672 net.cpp:454] drop7_2 <- fc7_2
I0226 12:57:58.985968  7672 net.cpp:397] drop7_2 -> fc7_2 (in-place)
I0226 12:57:58.986001  7672 net.cpp:150] Setting up drop7_2
I0226 12:57:58.986012  7672 net.cpp:157] Top shape: 20 1024 41 41 (34426880)
I0226 12:57:58.986021  7672 net.cpp:165] Memory required for data: 7302557360
I0226 12:57:58.986028  7672 layer_factory.hpp:77] Creating layer fc8-SEC_2
I0226 12:57:58.986042  7672 net.cpp:106] Creating Layer fc8-SEC_2
I0226 12:57:58.986052  7672 net.cpp:454] fc8-SEC_2 <- fc7_2
I0226 12:57:58.986061  7672 net.cpp:411] fc8-SEC_2 -> fc8-SEC_2
I0226 12:57:58.986579  7672 net.cpp:150] Setting up fc8-SEC_2
I0226 12:57:58.986596  7672 net.cpp:157] Top shape: 20 21 41 41 (706020)
I0226 12:57:58.986605  7672 net.cpp:165] Memory required for data: 7305381440
I0226 12:57:58.986616  7672 layer_factory.hpp:77] Creating layer fc6_3
I0226 12:57:58.986630  7672 net.cpp:106] Creating Layer fc6_3
I0226 12:57:58.986640  7672 net.cpp:454] fc6_3 <- pool5a_pool5a_0_split_2
I0226 12:57:58.986651  7672 net.cpp:411] fc6_3 -> fc6_3
I0226 12:57:59.002532  7672 net.cpp:150] Setting up fc6_3
I0226 12:57:59.002569  7672 net.cpp:157] Top shape: 20 1024 41 41 (34426880)
I0226 12:57:59.002581  7672 net.cpp:165] Memory required for data: 7443088960
I0226 12:57:59.002598  7672 layer_factory.hpp:77] Creating layer relu6_3
I0226 12:57:59.002614  7672 net.cpp:106] Creating Layer relu6_3
I0226 12:57:59.002626  7672 net.cpp:454] relu6_3 <- fc6_3
I0226 12:57:59.002640  7672 net.cpp:397] relu6_3 -> fc6_3 (in-place)
I0226 12:57:59.002655  7672 net.cpp:150] Setting up relu6_3
I0226 12:57:59.002669  7672 net.cpp:157] Top shape: 20 1024 41 41 (34426880)
I0226 12:57:59.002679  7672 net.cpp:165] Memory required for data: 7580796480
I0226 12:57:59.002698  7672 layer_factory.hpp:77] Creating layer drop6_3
I0226 12:57:59.002712  7672 net.cpp:106] Creating Layer drop6_3
I0226 12:57:59.002722  7672 net.cpp:454] drop6_3 <- fc6_3
I0226 12:57:59.002732  7672 net.cpp:397] drop6_3 -> fc6_3 (in-place)
I0226 12:57:59.002771  7672 net.cpp:150] Setting up drop6_3
I0226 12:57:59.002785  7672 net.cpp:157] Top shape: 20 1024 41 41 (34426880)
I0226 12:57:59.002796  7672 net.cpp:165] Memory required for data: 7718504000
I0226 12:57:59.002806  7672 layer_factory.hpp:77] Creating layer fc7_3
I0226 12:57:59.002822  7672 net.cpp:106] Creating Layer fc7_3
I0226 12:57:59.002835  7672 net.cpp:454] fc7_3 <- fc6_3
I0226 12:57:59.002848  7672 net.cpp:411] fc7_3 -> fc7_3
I0226 12:57:59.006129  7672 net.cpp:150] Setting up fc7_3
I0226 12:57:59.006160  7672 net.cpp:157] Top shape: 20 1024 41 41 (34426880)
I0226 12:57:59.006171  7672 net.cpp:165] Memory required for data: 7856211520
I0226 12:57:59.006191  7672 layer_factory.hpp:77] Creating layer relu7_3
I0226 12:57:59.006208  7672 net.cpp:106] Creating Layer relu7_3
I0226 12:57:59.006219  7672 net.cpp:454] relu7_3 <- fc7_3
I0226 12:57:59.006232  7672 net.cpp:397] relu7_3 -> fc7_3 (in-place)
I0226 12:57:59.006247  7672 net.cpp:150] Setting up relu7_3
I0226 12:57:59.006259  7672 net.cpp:157] Top shape: 20 1024 41 41 (34426880)
I0226 12:57:59.006269  7672 net.cpp:165] Memory required for data: 7993919040
I0226 12:57:59.006279  7672 layer_factory.hpp:77] Creating layer drop7_3
I0226 12:57:59.006292  7672 net.cpp:106] Creating Layer drop7_3
I0226 12:57:59.006302  7672 net.cpp:454] drop7_3 <- fc7_3
I0226 12:57:59.006315  7672 net.cpp:397] drop7_3 -> fc7_3 (in-place)
I0226 12:57:59.006353  7672 net.cpp:150] Setting up drop7_3
I0226 12:57:59.006372  7672 net.cpp:157] Top shape: 20 1024 41 41 (34426880)
I0226 12:57:59.006382  7672 net.cpp:165] Memory required for data: 8131626560
I0226 12:57:59.006392  7672 layer_factory.hpp:77] Creating layer fc8-SEC_3
I0226 12:57:59.006410  7672 net.cpp:106] Creating Layer fc8-SEC_3
I0226 12:57:59.006422  7672 net.cpp:454] fc8-SEC_3 <- fc7_3
I0226 12:57:59.006435  7672 net.cpp:411] fc8-SEC_3 -> fc8-SEC_3
I0226 12:57:59.007083  7672 net.cpp:150] Setting up fc8-SEC_3
I0226 12:57:59.007104  7672 net.cpp:157] Top shape: 20 21 41 41 (706020)
I0226 12:57:59.007114  7672 net.cpp:165] Memory required for data: 8134450640
I0226 12:57:59.007128  7672 layer_factory.hpp:77] Creating layer fc6_4
I0226 12:57:59.007158  7672 net.cpp:106] Creating Layer fc6_4
I0226 12:57:59.007172  7672 net.cpp:454] fc6_4 <- pool5a_pool5a_0_split_3
I0226 12:57:59.007186  7672 net.cpp:411] fc6_4 -> fc6_4
I0226 12:57:59.016839  7672 net.cpp:150] Setting up fc6_4
I0226 12:57:59.016861  7672 net.cpp:157] Top shape: 20 1024 41 41 (34426880)
I0226 12:57:59.016868  7672 net.cpp:165] Memory required for data: 8272158160
I0226 12:57:59.016877  7672 layer_factory.hpp:77] Creating layer relu6_4
I0226 12:57:59.016886  7672 net.cpp:106] Creating Layer relu6_4
I0226 12:57:59.016893  7672 net.cpp:454] relu6_4 <- fc6_4
I0226 12:57:59.016901  7672 net.cpp:397] relu6_4 -> fc6_4 (in-place)
I0226 12:57:59.016911  7672 net.cpp:150] Setting up relu6_4
I0226 12:57:59.016917  7672 net.cpp:157] Top shape: 20 1024 41 41 (34426880)
I0226 12:57:59.016922  7672 net.cpp:165] Memory required for data: 8409865680
I0226 12:57:59.016928  7672 layer_factory.hpp:77] Creating layer drop6_4
I0226 12:57:59.016935  7672 net.cpp:106] Creating Layer drop6_4
I0226 12:57:59.016942  7672 net.cpp:454] drop6_4 <- fc6_4
I0226 12:57:59.016948  7672 net.cpp:397] drop6_4 -> fc6_4 (in-place)
I0226 12:57:59.016971  7672 net.cpp:150] Setting up drop6_4
I0226 12:57:59.016983  7672 net.cpp:157] Top shape: 20 1024 41 41 (34426880)
I0226 12:57:59.016988  7672 net.cpp:165] Memory required for data: 8547573200
I0226 12:57:59.016996  7672 layer_factory.hpp:77] Creating layer fc7_4
I0226 12:57:59.017006  7672 net.cpp:106] Creating Layer fc7_4
I0226 12:57:59.017011  7672 net.cpp:454] fc7_4 <- fc6_4
I0226 12:57:59.017019  7672 net.cpp:411] fc7_4 -> fc7_4
I0226 12:57:59.019276  7672 net.cpp:150] Setting up fc7_4
I0226 12:57:59.019326  7672 net.cpp:157] Top shape: 20 1024 41 41 (34426880)
I0226 12:57:59.019333  7672 net.cpp:165] Memory required for data: 8685280720
I0226 12:57:59.019342  7672 layer_factory.hpp:77] Creating layer relu7_4
I0226 12:57:59.019351  7672 net.cpp:106] Creating Layer relu7_4
I0226 12:57:59.019357  7672 net.cpp:454] relu7_4 <- fc7_4
I0226 12:57:59.019366  7672 net.cpp:397] relu7_4 -> fc7_4 (in-place)
I0226 12:57:59.019374  7672 net.cpp:150] Setting up relu7_4
I0226 12:57:59.019382  7672 net.cpp:157] Top shape: 20 1024 41 41 (34426880)
I0226 12:57:59.019388  7672 net.cpp:165] Memory required for data: 8822988240
I0226 12:57:59.019393  7672 layer_factory.hpp:77] Creating layer drop7_4
I0226 12:57:59.019402  7672 net.cpp:106] Creating Layer drop7_4
I0226 12:57:59.019407  7672 net.cpp:454] drop7_4 <- fc7_4
I0226 12:57:59.019413  7672 net.cpp:397] drop7_4 -> fc7_4 (in-place)
I0226 12:57:59.019438  7672 net.cpp:150] Setting up drop7_4
I0226 12:57:59.019445  7672 net.cpp:157] Top shape: 20 1024 41 41 (34426880)
I0226 12:57:59.019451  7672 net.cpp:165] Memory required for data: 8960695760
I0226 12:57:59.019456  7672 layer_factory.hpp:77] Creating layer fc8-SEC_4
I0226 12:57:59.019470  7672 net.cpp:106] Creating Layer fc8-SEC_4
I0226 12:57:59.019476  7672 net.cpp:454] fc8-SEC_4 <- fc7_4
I0226 12:57:59.019484  7672 net.cpp:411] fc8-SEC_4 -> fc8-SEC_4
I0226 12:57:59.019843  7672 net.cpp:150] Setting up fc8-SEC_4
I0226 12:57:59.019857  7672 net.cpp:157] Top shape: 20 21 41 41 (706020)
I0226 12:57:59.019863  7672 net.cpp:165] Memory required for data: 8963519840
I0226 12:57:59.019873  7672 layer_factory.hpp:77] Creating layer fc8-SEC
I0226 12:57:59.019894  7672 net.cpp:106] Creating Layer fc8-SEC
I0226 12:57:59.019902  7672 net.cpp:454] fc8-SEC <- fc8-SEC_1
I0226 12:57:59.019909  7672 net.cpp:454] fc8-SEC <- fc8-SEC_2
I0226 12:57:59.019932  7672 net.cpp:454] fc8-SEC <- fc8-SEC_3
I0226 12:57:59.019940  7672 net.cpp:454] fc8-SEC <- fc8-SEC_4
I0226 12:57:59.019948  7672 net.cpp:411] fc8-SEC -> fc8-SEC
I0226 12:57:59.019978  7672 net.cpp:150] Setting up fc8-SEC
I0226 12:57:59.019986  7672 net.cpp:157] Top shape: 20 21 41 41 (706020)
I0226 12:57:59.019992  7672 net.cpp:165] Memory required for data: 8966343920
I0226 12:57:59.020000  7672 layer_factory.hpp:77] Creating layer Softmax
I0226 12:57:59.020051  7672 net.cpp:106] Creating Layer Softmax
I0226 12:57:59.020061  7672 net.cpp:454] Softmax <- fc8-SEC
I0226 12:57:59.020083  7672 net.cpp:411] Softmax -> fc8-SEC-Softmax
I0226 12:57:59.472357  7672 net.cpp:150] Setting up Softmax
I0226 12:57:59.472407  7672 net.cpp:157] Top shape: 20 21 41 41 (706020)
I0226 12:57:59.472415  7672 net.cpp:165] Memory required for data: 8969168000
I0226 12:57:59.472426  7672 layer_factory.hpp:77] Creating layer fc8-SEC-Softmax_Softmax_0_split
I0226 12:57:59.472442  7672 net.cpp:106] Creating Layer fc8-SEC-Softmax_Softmax_0_split
I0226 12:57:59.472451  7672 net.cpp:454] fc8-SEC-Softmax_Softmax_0_split <- fc8-SEC-Softmax
I0226 12:57:59.472465  7672 net.cpp:411] fc8-SEC-Softmax_Softmax_0_split -> fc8-SEC-Softmax_Softmax_0_split_0
I0226 12:57:59.472483  7672 net.cpp:411] fc8-SEC-Softmax_Softmax_0_split -> fc8-SEC-Softmax_Softmax_0_split_1
I0226 12:57:59.472492  7672 net.cpp:411] fc8-SEC-Softmax_Softmax_0_split -> fc8-SEC-Softmax_Softmax_0_split_2
I0226 12:57:59.472501  7672 net.cpp:411] fc8-SEC-Softmax_Softmax_0_split -> fc8-SEC-Softmax_Softmax_0_split_3
I0226 12:57:59.472565  7672 net.cpp:150] Setting up fc8-SEC-Softmax_Softmax_0_split
I0226 12:57:59.472575  7672 net.cpp:157] Top shape: 20 21 41 41 (706020)
I0226 12:57:59.472582  7672 net.cpp:157] Top shape: 20 21 41 41 (706020)
I0226 12:57:59.472589  7672 net.cpp:157] Top shape: 20 21 41 41 (706020)
I0226 12:57:59.472595  7672 net.cpp:157] Top shape: 20 21 41 41 (706020)
I0226 12:57:59.472601  7672 net.cpp:165] Memory required for data: 8980464320
I0226 12:57:59.472609  7672 layer_factory.hpp:77] Creating layer CRF
I0226 12:57:59.472642  7672 net.cpp:106] Creating Layer CRF
I0226 12:57:59.472652  7672 net.cpp:454] CRF <- fc8-SEC-Softmax_Softmax_0_split_0
I0226 12:57:59.472661  7672 net.cpp:454] CRF <- images_Annotation_2_split_1
I0226 12:57:59.472671  7672 net.cpp:411] CRF -> fc8-SEC-CRF-log
I0226 12:57:59.473924  7672 net.cpp:150] Setting up CRF
I0226 12:57:59.473959  7672 net.cpp:157] Top shape: 20 21 41 41 (706020)
I0226 12:57:59.473966  7672 net.cpp:165] Memory required for data: 8983288400
I0226 12:57:59.473974  7672 layer_factory.hpp:77] Creating layer update-seed
I0226 12:57:59.474004  7672 net.cpp:106] Creating Layer update-seed
I0226 12:57:59.474014  7672 net.cpp:454] update-seed <- labels
I0226 12:57:59.474022  7672 net.cpp:454] update-seed <- fc8-SEC-Softmax_Softmax_0_split_1
I0226 12:57:59.474030  7672 net.cpp:454] update-seed <- cues
I0226 12:57:59.474036  7672 net.cpp:454] update-seed <- images_Annotation_2_split_2
I0226 12:57:59.474045  7672 net.cpp:411] update-seed -> cues-new
I0226 12:57:59.673449  7672 net.cpp:150] Setting up update-seed
I0226 12:57:59.673503  7672 net.cpp:157] Top shape: 20 21 41 41 (706020)
I0226 12:57:59.673516  7672 net.cpp:165] Memory required for data: 8986112480
I0226 12:57:59.673532  7672 layer_factory.hpp:77] Creating layer loss-Seed
I0226 12:57:59.673632  7672 net.cpp:106] Creating Layer loss-Seed
I0226 12:57:59.673650  7672 net.cpp:454] loss-Seed <- fc8-SEC-Softmax_Softmax_0_split_2
I0226 12:57:59.673679  7672 net.cpp:454] loss-Seed <- cues-new
I0226 12:57:59.673694  7672 net.cpp:411] loss-Seed -> loss-Seed
I0226 12:58:00.010113  7672 net.cpp:150] Setting up loss-Seed
I0226 12:58:00.010166  7672 net.cpp:157] Top shape: 1 (1)
I0226 12:58:00.010177  7672 net.cpp:160]     with loss weight 1
I0226 12:58:00.010205  7672 net.cpp:165] Memory required for data: 8986112484
I0226 12:58:00.010218  7672 layer_factory.hpp:77] Creating layer loss-Constrain
I0226 12:58:00.010283  7672 net.cpp:106] Creating Layer loss-Constrain
I0226 12:58:00.010301  7672 net.cpp:454] loss-Constrain <- fc8-SEC-Softmax_Softmax_0_split_3
I0226 12:58:00.010315  7672 net.cpp:454] loss-Constrain <- fc8-SEC-CRF-log
I0226 12:58:00.010335  7672 net.cpp:411] loss-Constrain -> loss-Constrain
I0226 12:58:00.258813  7672 net.cpp:150] Setting up loss-Constrain
I0226 12:58:00.258862  7672 net.cpp:157] Top shape: 1 (1)
I0226 12:58:00.258868  7672 net.cpp:160]     with loss weight 1
I0226 12:58:00.258893  7672 net.cpp:165] Memory required for data: 8986112488
I0226 12:58:00.258903  7672 net.cpp:226] loss-Constrain needs backward computation.
I0226 12:58:00.258911  7672 net.cpp:226] loss-Seed needs backward computation.
I0226 12:58:00.258920  7672 net.cpp:226] update-seed needs backward computation.
I0226 12:58:00.258936  7672 net.cpp:226] CRF needs backward computation.
…
I0226 19:28:35.729535  7672 sgd_solver.cpp:273] Snapshotting solver state to binary proto file models/model-s_iter_8000.solverstate
I0226 19:28:38.387765  7672 solver.cpp:318] Iteration 8000, loss = 0.955367
I0226 19:28:38.387806  7672 solver.cpp:323] Optimization Done.
done solving
UNIQUESTRING 2
/media/ssd1/austin/Point-DSRG/deeplab-public-ver2/python
WARNING: Logging before InitGoogleLogging() is written to STDERR
I0226 19:28:48.005173 31022 net.cpp:49] Initializing net from parameters:
name: "DSRG"
input: "images"
input_dim: 1
input_dim: 3
input_dim: 321
input_dim: 321
state {
  phase: TEST
}
layer {
  name: "conv1_1"
  type: "Convolution"
  bottom: "images"
  top: "conv1_1"
  param {
    lr_mult: 1
    decay_mult: 1
  }
  param {
    lr_mult: 2
    decay_mult: 0
  }
  convolution_param {
    num_output: 64
    pad: 1
    kernel_size: 3
  }
}
layer {
  name: "relu1_1"
  type: "ReLU"
  bottom: "conv1_1"
  top: "conv1_1"
}
layer {
  name: "conv1_2"
  type: "Convolution"
  bottom: "conv1_1"
  top: "conv1_2"
  param {
    lr_mult: 1
    decay_mult: 1
  }
  param {
    lr_mult: 2
    decay_mult: 0
  }
  convolution_param {
    num_output: 64
    pad: 1
    kernel_size: 3
  }
}
layer {
  name: "relu1_2"
  type: "ReLU"
  bottom: "conv1_2"
  top: "conv1_2"
}
layer {
  name: "pool1"
  type: "Pooling"
  bottom: "conv1_2"
  top: "pool1"
  pooling_param {
    pool: MAX
    kernel_size: 3
    stride: 2
    pad: 1
  }
}
layer {
  name: "conv2_1"
  type: "Convolution"
  bottom: "pool1"
  top: "conv2_1"
  param {
    lr_mult: 1
    decay_mult: 1
  }
  param {
    lr_mult: 2
    decay_mult: 0
  }
  convolution_param {
    num_output: 128
    pad: 1
    kernel_size: 3
  }
}
layer {
  name: "relu2_1"
  type: "ReLU"
  bottom: "conv2_1"
  top: "conv2_1"
}
layer {
  name: "conv2_2"
  type: "Convolution"
  bottom: "conv2_1"
  top: "conv2_2"
  param {
    lr_mult: 1
    decay_mult: 1
  }
  param {
    lr_mult: 2
    decay_mult: 0
  }
  convolution_param {
    num_output: 128
    pad: 1
    kernel_size: 3
  }
}
layer {
  name: "relu2_2"
  type: "ReLU"
  bottom: "conv2_2"
  top: "conv2_2"
}
layer {
  name: "pool2"
  type: "Pooling"
  bottom: "conv2_2"
  top: "pool2"
  pooling_param {
    pool: MAX
    kernel_size: 3
    stride: 2
    pad: 1
  }
}
layer {
  name: "conv3_1"
  type: "Convolution"
  bottom: "pool2"
  top: "conv3_1"
  param {
    lr_mult: 1
    decay_mult: 1
  }
  param {
    lr_mult: 2
    decay_mult: 0
  }
  convolution_param {
    num_output: 256
    pad: 1
    kernel_size: 3
  }
}
layer {
  name: "relu3_1"
  type: "ReLU"
  bottom: "conv3_1"
  top: "conv3_1"
}
layer {
  name: "conv3_2"
  type: "Convolution"
  bottom: "conv3_1"
  top: "conv3_2"
  param {
    lr_mult: 1
    decay_mult: 1
  }
  param {
    lr_mult: 2
    decay_mult: 0
  }
  convolution_param {
    num_output: 256
    pad: 1
    kernel_size: 3
  }
}
layer {
  name: "relu3_2"
  type: "ReLU"
  bottom: "conv3_2"
  top: "conv3_2"
}
layer {
  name: "conv3_3"
  type: "Convolution"
  bottom: "conv3_2"
  top: "conv3_3"
  param {
    lr_mult: 1
    decay_mult: 1
  }
  param {
    lr_mult: 2
    decay_mult: 0
  }
  convolution_param {
    num_output: 256
    pad: 1
    kernel_size: 3
  }
}
layer {
  name: "relu3_3"
  type: "ReLU"
  bottom: "conv3_3"
  top: "conv3_3"
}
layer {
  name: "pool3"
  type: "Pooling"
  bottom: "conv3_3"
  top: "pool3"
  pooling_param {
    pool: MAX
    kernel_size: 3
    stride: 2
    pad: 1
  }
}
layer {
  name: "conv4_1"
  type: "Convolution"
  bottom: "pool3"
  top: "conv4_1"
  param {
    lr_mult: 1
    decay_mult: 1
  }
  param {
    lr_mult: 2
    decay_mult: 0
  }
  convolution_param {
    num_output: 512
    pad: 1
    kernel_size: 3
  }
}
layer {
  name: "relu4_1"
  type: "ReLU"
  bottom: "conv4_1"
  top: "conv4_1"
}
layer {
  name: "conv4_2"
  type: "Convolution"
  bottom: "conv4_1"
  top: "conv4_2"
  param {
    lr_mult: 1
    decay_mult: 1
  }
  param {
    lr_mult: 2
    decay_mult: 0
  }
  convolution_param {
    num_output: 512
    pad: 1
    kernel_size: 3
  }
}
layer {
  name: "relu4_2"
  type: "ReLU"
  bottom: "conv4_2"
  top: "conv4_2"
}
layer {
  name: "conv4_3"
  type: "Convolution"
  bottom: "conv4_2"
  top: "conv4_3"
  param {
    lr_mult: 1
    decay_mult: 1
  }
  param {
    lr_mult: 2
    decay_mult: 0
  }
  convolution_param {
    num_output: 512
    pad: 1
    kernel_size: 3
  }
}
layer {
  name: "relu4_3"
  type: "ReLU"
  bottom: "conv4_3"
  top: "conv4_3"
}
layer {
  name: "pool4"
  type: "Pooling"
  bottom: "conv4_3"
  top: "pool4"
  pooling_param {
    pool: MAX
    kernel_size: 3
    stride: 1
    pad: 1
  }
}
layer {
  name: "conv5_1"
  type: "Convolution"
  bottom: "pool4"
  top: "conv5_1"
  param {
    lr_mult: 1
    decay_mult: 1
  }
  param {
    lr_mult: 2
    decay_mult: 0
  }
  convolution_param {
    num_output: 512
    pad: 2
    kernel_size: 3
    dilation: 2
  }
}
layer {
  name: "relu5_1"
  type: "ReLU"
  bottom: "conv5_1"
  top: "conv5_1"
}
layer {
  name: "conv5_2"
  type: "Convolution"
  bottom: "conv5_1"
  top: "conv5_2"
  param {
    lr_mult: 1
    decay_mult: 1
  }
  param {
    lr_mult: 2
    decay_mult: 0
  }
  convolution_param {
    num_output: 512
    pad: 2
    kernel_size: 3
    dilation: 2
  }
}
layer {
  name: "relu5_2"
  type: "ReLU"
  bottom: "conv5_2"
  top: "conv5_2"
}
layer {
  name: "conv5_3"
  type: "Convolution"
  bottom: "conv5_2"
  top: "conv5_3"
  param {
    lr_mult: 1
    decay_mult: 1
  }
  param {
    lr_mult: 2
    decay_mult: 0
  }
  convolution_param {
    num_output: 512
    pad: 2
    kernel_size: 3
    dilation: 2
  }
}
layer {
  name: "relu5_3"
  type: "ReLU"
  bottom: "conv5_3"
  top: "conv5_3"
}
layer {
  name: "pool5"
  type: "Pooling"
  bottom: "conv5_3"
  top: "pool5"
  pooling_param {
    pool: MAX
    kernel_size: 3
    stride: 1
    pad: 1
  }
}
layer {
  name: "pool5a"
  type: "Pooling"
  bottom: "pool5"
  top: "pool5a"
  pooling_param {
    pool: AVE
    kernel_size: 3
    stride: 1
    pad: 1
  }
}
layer {
  name: "fc6_1"
  type: "Convolution"
  bottom: "pool5a"
  top: "fc6_1"
  param {
    lr_mult: 1
    decay_mult: 1
  }
  param {
    lr_mult: 2
    decay_mult: 0
  }
  convolution_param {
    num_output: 1024
    pad: 6
    kernel_size: 3
    dilation: 6
  }
}
layer {
  name: "relu6_1"
  type: "ReLU"
  bottom: "fc6_1"
  top: "fc6_1"
}
layer {
  name: "drop6_1"
  type: "Dropout"
  bottom: "fc6_1"
  top: "fc6_1"
  dropout_param {
    dropout_ratio: 0.5
  }
}
layer {
  name: "fc7_1"
  type: "Convolution"
  bottom: "fc6_1"
  top: "fc7_1"
  param {
    lr_mult: 1
    decay_mult: 1
  }
  param {
    lr_mult: 2
    decay_mult: 0
  }
  convolution_param {
    num_output: 1024
    kernel_size: 1
  }
}
layer {
  name: "relu7_1"
  type: "ReLU"
  bottom: "fc7_1"
  top: "fc7_1"
}
layer {
  name: "drop7_1"
  type: "Dropout"
  bottom: "fc7_1"
  top: "fc7_1"
  dropout_param {
    dropout_ratio: 0.5
  }
}
layer {
  name: "fc8-SEC_1"
  type: "Convolution"
  bottom: "fc7_1"
  top: "fc8-SEC_1"
  param {
    lr_mult: 10
    decay_mult: 1
  }
  param {
    lr_mult: 20
    decay_mult: 0
  }
  convolution_param {
    num_output: 21
    kernel_size: 1
    weight_filler {
      type: "gaussian"
      std: 0.01
    }
    bias_filler {
      type: "constant"
      value: 0
    }
  }
}
layer {
  name: "fc6_2"
  type: "Convolution"
  bottom: "pool5a"
  top: "fc6_2"
  param {
    lr_mult: 1
    decay_mult: 1
  }
  param {
    lr_mult: 2
    decay_mult: 0
  }
  convolution_param {
    num_output: 1024
    pad: 12
    kernel_size: 3
    dilation: 12
  }
}
layer {
  name: "relu6_2"
  type: "ReLU"
  bottom: "fc6_2"
  top: "fc6_2"
}
layer {
  name: "drop6_2"
  type: "Dropout"
  bottom: "fc6_2"
  top: "fc6_2"
  dropout_param {
    dropout_ratio: 0.5
  }
}
layer {
  name: "fc7_2"
  type: "Convolution"
  bottom: "fc6_2"
  top: "fc7_2"
  param {
    lr_mult: 1
    decay_mult: 1
  }
  param {
    lr_mult: 2
    decay_mult: 0
  }
  convolution_param {
    num_output: 1024
    kernel_size: 1
  }
}
layer {
  name: "relu7_2"
  type: "ReLU"
  bottom: "fc7_2"
  top: "fc7_2"
}
layer {
  name: "drop7_2"
  type: "Dropout"
  bottom: "fc7_2"
  top: "fc7_2"
  dropout_param {
    dropout_ratio: 0.5
  }
}
layer {
  name: "fc8-SEC_2"
  type: "Convolution"
  bottom: "fc7_2"
  top: "fc8-SEC_2"
  param {
    lr_mult: 10
    decay_mult: 1
  }
  param {
    lr_mult: 20
    decay_mult: 0
  }
  convolution_param {
    num_output: 21
    kernel_size: 1
    weight_filler {
      type: "gaussian"
      std: 0.01
    }
    bias_filler {
      type: "constant"
      value: 0
    }
  }
}
layer {
  name: "fc6_3"
  type: "Convolution"
  bottom: "pool5a"
  top: "fc6_3"
  param {
    lr_mult: 1
    decay_mult: 1
  }
  param {
    lr_mult: 2
    decay_mult: 0
  }
  convolution_param {
    num_output: 1024
    pad: 18
    kernel_size: 3
    dilation: 18
  }
}
layer {
  name: "relu6_3"
  type: "ReLU"
  bottom: "fc6_3"
  top: "fc6_3"
}
layer {
  name: "drop6_3"
  type: "Dropout"
  bottom: "fc6_3"
  top: "fc6_3"
  dropout_param {
    dropout_ratio: 0.5
  }
}
layer {
  name: "fc7_3"
  type: "Convolution"
  bottom: "fc6_3"
  top: "fc7_3"
  param {
    lr_mult: 1
    decay_mult: 1
  }
  param {
    lr_mult: 2
    decay_mult: 0
  }
  convolution_param {
    num_output: 1024
    kernel_size: 1
  }
}
layer {
  name: "relu7_3"
  type: "ReLU"
  bottom: "fc7_3"
  top: "fc7_3"
}
layer {
  name: "drop7_3"
  type: "Dropout"
  bottom: "fc7_3"
  top: "fc7_3"
  dropout_param {
    dropout_ratio: 0.5
  }
}
layer {
  name: "fc8-SEC_3"
  type: "Convolution"
  bottom: "fc7_3"
  top: "fc8-SEC_3"
  param {
    lr_mult: 10
    decay_mult: 1
  }
  param {
    lr_mult: 20
    decay_mult: 0
  }
  convolution_param {
    num_output: 21
    kernel_size: 1
    weight_filler {
      type: "gaussian"
      std: 0.01
    }
    bias_filler {
      type: "constant"
      value: 0
    }
  }
}
layer {
  name: "fc6_4"
  type: "Convolution"
  bottom: "pool5a"
  top: "fc6_4"
  param {
    lr_mult: 1
    decay_mult: 1
  }
  param {
    lr_mult: 2
    decay_mult: 0
  }
  convolution_param {
    num_output: 1024
    pad: 24
    kernel_size: 3
    dilation: 24
  }
}
layer {
  name: "relu6_4"
  type: "ReLU"
  bottom: "fc6_4"
  top: "fc6_4"
}
layer {
  name: "drop6_4"
  type: "Dropout"
  bottom: "fc6_4"
  top: "fc6_4"
  dropout_param {
    dropout_ratio: 0.5
  }
}
layer {
  name: "fc7_4"
  type: "Convolution"
  bottom: "fc6_4"
  top: "fc7_4"
  param {
    lr_mult: 1
    decay_mult: 1
  }
  param {
    lr_mult: 2
    decay_mult: 0
  }
  convolution_param {
    num_output: 1024
    kernel_size: 1
  }
}
layer {
  name: "relu7_4"
  type: "ReLU"
  bottom: "fc7_4"
  top: "fc7_4"
}
layer {
  name: "drop7_4"
  type: "Dropout"
  bottom: "fc7_4"
  top: "fc7_4"
  dropout_param {
    dropout_ratio: 0.5
  }
}
layer {
  name: "fc8-SEC_4"
  type: "Convolution"
  bottom: "fc7_4"
  top: "fc8-SEC_4"
  param {
    lr_mult: 10
    decay_mult: 1
  }
  param {
    lr_mult: 20
    decay_mult: 0
  }
  convolution_param {
    num_output: 21
    kernel_size: 1
    weight_filler {
      type: "gaussian"
      std: 0.01
    }
    bias_filler {
      type: "constant"
      value: 0
    }
  }
}
layer {
  name: "fc8-SEC"
  type: "Eltwise"
  bottom: "fc8-SEC_1"
  bottom: "fc8-SEC_2"
  bottom: "fc8-SEC_3"
  bottom: "fc8-SEC_4"
  top: "fc8-SEC"
  eltwise_param {
    operation: SUM
  }
}
I0226 19:28:48.008256 31022 net.cpp:413] Input 0 -> images
I0226 19:28:48.153630 31022 layer_factory.hpp:77] Creating layer conv1_1
I0226 19:28:48.153687 31022 net.cpp:106] Creating Layer conv1_1
I0226 19:28:48.153697 31022 net.cpp:454] conv1_1 <- images
I0226 19:28:48.153710 31022 net.cpp:411] conv1_1 -> conv1_1
I0226 19:28:48.166636 31022 net.cpp:150] Setting up conv1_1
I0226 19:28:48.166692 31022 net.cpp:157] Top shape: 1 64 321 321 (6594624)
I0226 19:28:48.166704 31022 net.cpp:165] Memory required for data: 26378496
I0226 19:28:48.166740 31022 layer_factory.hpp:77] Creating layer relu1_1
I0226 19:28:48.166766 31022 net.cpp:106] Creating Layer relu1_1
I0226 19:28:48.166779 31022 net.cpp:454] relu1_1 <- conv1_1
I0226 19:28:48.166810 31022 net.cpp:397] relu1_1 -> conv1_1 (in-place)
I0226 19:28:48.166837 31022 net.cpp:150] Setting up relu1_1
I0226 19:28:48.166854 31022 net.cpp:157] Top shape: 1 64 321 321 (6594624)
I0226 19:28:48.166867 31022 net.cpp:165] Memory required for data: 52756992
I0226 19:28:48.166903 31022 layer_factory.hpp:77] Creating layer conv1_2
I0226 19:28:48.166930 31022 net.cpp:106] Creating Layer conv1_2
I0226 19:28:48.166945 31022 net.cpp:454] conv1_2 <- conv1_1
I0226 19:28:48.166963 31022 net.cpp:411] conv1_2 -> conv1_2
I0226 19:28:48.181720 31022 net.cpp:150] Setting up conv1_2
I0226 19:28:48.181776 31022 net.cpp:157] Top shape: 1 64 321 321 (6594624)
I0226 19:28:48.181792 31022 net.cpp:165] Memory required for data: 79135488
I0226 19:28:48.181820 31022 layer_factory.hpp:77] Creating layer relu1_2
I0226 19:28:48.181850 31022 net.cpp:106] Creating Layer relu1_2
I0226 19:28:48.181879 31022 net.cpp:454] relu1_2 <- conv1_2
I0226 19:28:48.181898 31022 net.cpp:397] relu1_2 -> conv1_2 (in-place)
I0226 19:28:48.181931 31022 net.cpp:150] Setting up relu1_2
I0226 19:28:48.181952 31022 net.cpp:157] Top shape: 1 64 321 321 (6594624)
I0226 19:28:48.181967 31022 net.cpp:165] Memory required for data: 105513984
I0226 19:28:48.181990 31022 layer_factory.hpp:77] Creating layer pool1
I0226 19:28:48.182021 31022 net.cpp:106] Creating Layer pool1
I0226 19:28:48.182035 31022 net.cpp:454] pool1 <- conv1_2
I0226 19:28:48.182054 31022 net.cpp:411] pool1 -> pool1
I0226 19:28:48.182142 31022 net.cpp:150] Setting up pool1
I0226 19:28:48.182165 31022 net.cpp:157] Top shape: 1 64 161 161 (1658944)
I0226 19:28:48.182179 31022 net.cpp:165] Memory required for data: 112149760
I0226 19:28:48.182193 31022 layer_factory.hpp:77] Creating layer conv2_1
I0226 19:28:48.182215 31022 net.cpp:106] Creating Layer conv2_1
I0226 19:28:48.182229 31022 net.cpp:454] conv2_1 <- pool1
I0226 19:28:48.182248 31022 net.cpp:411] conv2_1 -> conv2_1
I0226 19:28:48.182798 31022 net.cpp:150] Setting up conv2_1
I0226 19:28:48.182826 31022 net.cpp:157] Top shape: 1 128 161 161 (3317888)
I0226 19:28:48.182840 31022 net.cpp:165] Memory required for data: 125421312
I0226 19:28:48.182863 31022 layer_factory.hpp:77] Creating layer relu2_1
I0226 19:28:48.182906 31022 net.cpp:106] Creating Layer relu2_1
I0226 19:28:48.182924 31022 net.cpp:454] relu2_1 <- conv2_1
I0226 19:28:48.182941 31022 net.cpp:397] relu2_1 -> conv2_1 (in-place)
I0226 19:28:48.182961 31022 net.cpp:150] Setting up relu2_1
I0226 19:28:48.182979 31022 net.cpp:157] Top shape: 1 128 161 161 (3317888)
I0226 19:28:48.182993 31022 net.cpp:165] Memory required for data: 138692864
I0226 19:28:48.183007 31022 layer_factory.hpp:77] Creating layer conv2_2
I0226 19:28:48.183030 31022 net.cpp:106] Creating Layer conv2_2
I0226 19:28:48.183050 31022 net.cpp:454] conv2_2 <- conv2_1
I0226 19:28:48.183066 31022 net.cpp:411] conv2_2 -> conv2_2
I0226 19:28:48.183750 31022 net.cpp:150] Setting up conv2_2
I0226 19:28:48.183776 31022 net.cpp:157] Top shape: 1 128 161 161 (3317888)
I0226 19:28:48.183790 31022 net.cpp:165] Memory required for data: 151964416
I0226 19:28:48.183809 31022 layer_factory.hpp:77] Creating layer relu2_2
I0226 19:28:48.183831 31022 net.cpp:106] Creating Layer relu2_2
I0226 19:28:48.183848 31022 net.cpp:454] relu2_2 <- conv2_2
I0226 19:28:48.183866 31022 net.cpp:397] relu2_2 -> conv2_2 (in-place)
I0226 19:28:48.183883 31022 net.cpp:150] Setting up relu2_2
I0226 19:28:48.183900 31022 net.cpp:157] Top shape: 1 128 161 161 (3317888)
I0226 19:28:48.183928 31022 net.cpp:165] Memory required for data: 165235968
I0226 19:28:48.183941 31022 layer_factory.hpp:77] Creating layer pool2
I0226 19:28:48.183959 31022 net.cpp:106] Creating Layer pool2
I0226 19:28:48.183974 31022 net.cpp:454] pool2 <- conv2_2
I0226 19:28:48.183992 31022 net.cpp:411] pool2 -> pool2
I0226 19:28:48.184067 31022 net.cpp:150] Setting up pool2
I0226 19:28:48.184089 31022 net.cpp:157] Top shape: 1 128 81 81 (839808)
I0226 19:28:48.184103 31022 net.cpp:165] Memory required for data: 168595200
I0226 19:28:48.184120 31022 layer_factory.hpp:77] Creating layer conv3_1
I0226 19:28:48.184144 31022 net.cpp:106] Creating Layer conv3_1
I0226 19:28:48.184164 31022 net.cpp:454] conv3_1 <- pool2
I0226 19:28:48.184180 31022 net.cpp:411] conv3_1 -> conv3_1
I0226 19:28:48.216424 31022 net.cpp:150] Setting up conv3_1
I0226 19:28:48.216500 31022 net.cpp:157] Top shape: 1 256 81 81 (1679616)
I0226 19:28:48.216516 31022 net.cpp:165] Memory required for data: 175313664
I0226 19:28:48.216544 31022 layer_factory.hpp:77] Creating layer relu3_1
I0226 19:28:48.216567 31022 net.cpp:106] Creating Layer relu3_1
I0226 19:28:48.216583 31022 net.cpp:454] relu3_1 <- conv3_1
I0226 19:28:48.216599 31022 net.cpp:397] relu3_1 -> conv3_1 (in-place)
I0226 19:28:48.216621 31022 net.cpp:150] Setting up relu3_1
I0226 19:28:48.216635 31022 net.cpp:157] Top shape: 1 256 81 81 (1679616)
I0226 19:28:48.216648 31022 net.cpp:165] Memory required for data: 182032128
I0226 19:28:48.216660 31022 layer_factory.hpp:77] Creating layer conv3_2
I0226 19:28:48.216683 31022 net.cpp:106] Creating Layer conv3_2
I0226 19:28:48.216704 31022 net.cpp:454] conv3_2 <- conv3_1
I0226 19:28:48.216719 31022 net.cpp:411] conv3_2 -> conv3_2
I0226 19:28:48.221477 31022 net.cpp:150] Setting up conv3_2
I0226 19:28:48.221527 31022 net.cpp:157] Top shape: 1 256 81 81 (1679616)
I0226 19:28:48.221544 31022 net.cpp:165] Memory required for data: 188750592
I0226 19:28:48.221565 31022 layer_factory.hpp:77] Creating layer relu3_2
I0226 19:28:48.221585 31022 net.cpp:106] Creating Layer relu3_2
I0226 19:28:48.221599 31022 net.cpp:454] relu3_2 <- conv3_2
I0226 19:28:48.221616 31022 net.cpp:397] relu3_2 -> conv3_2 (in-place)
I0226 19:28:48.221638 31022 net.cpp:150] Setting up relu3_2
I0226 19:28:48.221654 31022 net.cpp:157] Top shape: 1 256 81 81 (1679616)
I0226 19:28:48.221668 31022 net.cpp:165] Memory required for data: 195469056
I0226 19:28:48.221683 31022 layer_factory.hpp:77] Creating layer conv3_3
I0226 19:28:48.221710 31022 net.cpp:106] Creating Layer conv3_3
I0226 19:28:48.221726 31022 net.cpp:454] conv3_3 <- conv3_2
I0226 19:28:48.221746 31022 net.cpp:411] conv3_3 -> conv3_3
I0226 19:28:48.226285 31022 net.cpp:150] Setting up conv3_3
I0226 19:28:48.226332 31022 net.cpp:157] Top shape: 1 256 81 81 (1679616)
I0226 19:28:48.226347 31022 net.cpp:165] Memory required for data: 202187520
I0226 19:28:48.226370 31022 layer_factory.hpp:77] Creating layer relu3_3
I0226 19:28:48.226389 31022 net.cpp:106] Creating Layer relu3_3
I0226 19:28:48.226404 31022 net.cpp:454] relu3_3 <- conv3_3
I0226 19:28:48.226421 31022 net.cpp:397] relu3_3 -> conv3_3 (in-place)
I0226 19:28:48.226444 31022 net.cpp:150] Setting up relu3_3
I0226 19:28:48.226460 31022 net.cpp:157] Top shape: 1 256 81 81 (1679616)
I0226 19:28:48.226475 31022 net.cpp:165] Memory required for data: 208905984
I0226 19:28:48.226490 31022 layer_factory.hpp:77] Creating layer pool3
I0226 19:28:48.226514 31022 net.cpp:106] Creating Layer pool3
I0226 19:28:48.226539 31022 net.cpp:454] pool3 <- conv3_3
I0226 19:28:48.226559 31022 net.cpp:411] pool3 -> pool3
I0226 19:28:48.226641 31022 net.cpp:150] Setting up pool3
I0226 19:28:48.226665 31022 net.cpp:157] Top shape: 1 256 41 41 (430336)
I0226 19:28:48.226677 31022 net.cpp:165] Memory required for data: 210627328
I0226 19:28:48.226691 31022 layer_factory.hpp:77] Creating layer conv4_1
I0226 19:28:48.226716 31022 net.cpp:106] Creating Layer conv4_1
I0226 19:28:48.226729 31022 net.cpp:454] conv4_1 <- pool3
I0226 19:28:48.226752 31022 net.cpp:411] conv4_1 -> conv4_1
I0226 19:28:48.233167 31022 net.cpp:150] Setting up conv4_1
I0226 19:28:48.233213 31022 net.cpp:157] Top shape: 1 512 41 41 (860672)
I0226 19:28:48.233227 31022 net.cpp:165] Memory required for data: 214070016
I0226 19:28:48.233254 31022 layer_factory.hpp:77] Creating layer relu4_1
I0226 19:28:48.233273 31022 net.cpp:106] Creating Layer relu4_1
I0226 19:28:48.233287 31022 net.cpp:454] relu4_1 <- conv4_1
I0226 19:28:48.233305 31022 net.cpp:397] relu4_1 -> conv4_1 (in-place)
I0226 19:28:48.233325 31022 net.cpp:150] Setting up relu4_1
I0226 19:28:48.233340 31022 net.cpp:157] Top shape: 1 512 41 41 (860672)
I0226 19:28:48.233351 31022 net.cpp:165] Memory required for data: 217512704
I0226 19:28:48.233363 31022 layer_factory.hpp:77] Creating layer conv4_2
I0226 19:28:48.233384 31022 net.cpp:106] Creating Layer conv4_2
I0226 19:28:48.233397 31022 net.cpp:454] conv4_2 <- conv4_1
I0226 19:28:48.233412 31022 net.cpp:411] conv4_2 -> conv4_2
I0226 19:28:48.240947 31022 net.cpp:150] Setting up conv4_2
I0226 19:28:48.240977 31022 net.cpp:157] Top shape: 1 512 41 41 (860672)
I0226 19:28:48.240984 31022 net.cpp:165] Memory required for data: 220955392
I0226 19:28:48.241005 31022 layer_factory.hpp:77] Creating layer relu4_2
I0226 19:28:48.241019 31022 net.cpp:106] Creating Layer relu4_2
I0226 19:28:48.241027 31022 net.cpp:454] relu4_2 <- conv4_2
I0226 19:28:48.241039 31022 net.cpp:397] relu4_2 -> conv4_2 (in-place)
I0226 19:28:48.241052 31022 net.cpp:150] Setting up relu4_2
I0226 19:28:48.241061 31022 net.cpp:157] Top shape: 1 512 41 41 (860672)
I0226 19:28:48.241070 31022 net.cpp:165] Memory required for data: 224398080
I0226 19:28:48.241077 31022 layer_factory.hpp:77] Creating layer conv4_3
I0226 19:28:48.241091 31022 net.cpp:106] Creating Layer conv4_3
I0226 19:28:48.241098 31022 net.cpp:454] conv4_3 <- conv4_2
I0226 19:28:48.241111 31022 net.cpp:411] conv4_3 -> conv4_3
I0226 19:28:48.247308 31022 net.cpp:150] Setting up conv4_3
I0226 19:28:48.247337 31022 net.cpp:157] Top shape: 1 512 41 41 (860672)
I0226 19:28:48.247345 31022 net.cpp:165] Memory required for data: 227840768
I0226 19:28:48.247359 31022 layer_factory.hpp:77] Creating layer relu4_3
I0226 19:28:48.247371 31022 net.cpp:106] Creating Layer relu4_3
I0226 19:28:48.247381 31022 net.cpp:454] relu4_3 <- conv4_3
I0226 19:28:48.247393 31022 net.cpp:397] relu4_3 -> conv4_3 (in-place)
I0226 19:28:48.247407 31022 net.cpp:150] Setting up relu4_3
I0226 19:28:48.247416 31022 net.cpp:157] Top shape: 1 512 41 41 (860672)
I0226 19:28:48.247424 31022 net.cpp:165] Memory required for data: 231283456
I0226 19:28:48.247432 31022 layer_factory.hpp:77] Creating layer pool4
I0226 19:28:48.247443 31022 net.cpp:106] Creating Layer pool4
I0226 19:28:48.247452 31022 net.cpp:454] pool4 <- conv4_3
I0226 19:28:48.247462 31022 net.cpp:411] pool4 -> pool4
I0226 19:28:48.247509 31022 net.cpp:150] Setting up pool4
I0226 19:28:48.247524 31022 net.cpp:157] Top shape: 1 512 41 41 (860672)
I0226 19:28:48.247545 31022 net.cpp:165] Memory required for data: 234726144
I0226 19:28:48.247552 31022 layer_factory.hpp:77] Creating layer conv5_1
I0226 19:28:48.247568 31022 net.cpp:106] Creating Layer conv5_1
I0226 19:28:48.247576 31022 net.cpp:454] conv5_1 <- pool4
I0226 19:28:48.247589 31022 net.cpp:411] conv5_1 -> conv5_1
I0226 19:28:48.253214 31022 net.cpp:150] Setting up conv5_1
I0226 19:28:48.253238 31022 net.cpp:157] Top shape: 1 512 41 41 (860672)
I0226 19:28:48.253247 31022 net.cpp:165] Memory required for data: 238168832
I0226 19:28:48.253259 31022 layer_factory.hpp:77] Creating layer relu5_1
I0226 19:28:48.253269 31022 net.cpp:106] Creating Layer relu5_1
I0226 19:28:48.253278 31022 net.cpp:454] relu5_1 <- conv5_1
I0226 19:28:48.253288 31022 net.cpp:397] relu5_1 -> conv5_1 (in-place)
I0226 19:28:48.253301 31022 net.cpp:150] Setting up relu5_1
I0226 19:28:48.253309 31022 net.cpp:157] Top shape: 1 512 41 41 (860672)
I0226 19:28:48.253317 31022 net.cpp:165] Memory required for data: 241611520
I0226 19:28:48.253324 31022 layer_factory.hpp:77] Creating layer conv5_2
I0226 19:28:48.253340 31022 net.cpp:106] Creating Layer conv5_2
I0226 19:28:48.253347 31022 net.cpp:454] conv5_2 <- conv5_1
I0226 19:28:48.253356 31022 net.cpp:411] conv5_2 -> conv5_2
I0226 19:28:48.258822 31022 net.cpp:150] Setting up conv5_2
I0226 19:28:48.258850 31022 net.cpp:157] Top shape: 1 512 41 41 (860672)
I0226 19:28:48.258858 31022 net.cpp:165] Memory required for data: 245054208
I0226 19:28:48.258869 31022 layer_factory.hpp:77] Creating layer relu5_2
I0226 19:28:48.258891 31022 net.cpp:106] Creating Layer relu5_2
I0226 19:28:48.258899 31022 net.cpp:454] relu5_2 <- conv5_2
I0226 19:28:48.258909 31022 net.cpp:397] relu5_2 -> conv5_2 (in-place)
I0226 19:28:48.258920 31022 net.cpp:150] Setting up relu5_2
I0226 19:28:48.258929 31022 net.cpp:157] Top shape: 1 512 41 41 (860672)
I0226 19:28:48.258936 31022 net.cpp:165] Memory required for data: 248496896
I0226 19:28:48.258944 31022 layer_factory.hpp:77] Creating layer conv5_3
I0226 19:28:48.258960 31022 net.cpp:106] Creating Layer conv5_3
I0226 19:28:48.258966 31022 net.cpp:454] conv5_3 <- conv5_2
I0226 19:28:48.258976 31022 net.cpp:411] conv5_3 -> conv5_3
I0226 19:28:48.264387 31022 net.cpp:150] Setting up conv5_3
I0226 19:28:48.264410 31022 net.cpp:157] Top shape: 1 512 41 41 (860672)
I0226 19:28:48.264418 31022 net.cpp:165] Memory required for data: 251939584
I0226 19:28:48.264430 31022 layer_factory.hpp:77] Creating layer relu5_3
I0226 19:28:48.264443 31022 net.cpp:106] Creating Layer relu5_3
I0226 19:28:48.264451 31022 net.cpp:454] relu5_3 <- conv5_3
I0226 19:28:48.264466 31022 net.cpp:397] relu5_3 -> conv5_3 (in-place)
I0226 19:28:48.264477 31022 net.cpp:150] Setting up relu5_3
I0226 19:28:48.264485 31022 net.cpp:157] Top shape: 1 512 41 41 (860672)
I0226 19:28:48.264492 31022 net.cpp:165] Memory required for data: 255382272
I0226 19:28:48.264499 31022 layer_factory.hpp:77] Creating layer pool5
I0226 19:28:48.264509 31022 net.cpp:106] Creating Layer pool5
I0226 19:28:48.264518 31022 net.cpp:454] pool5 <- conv5_3
I0226 19:28:48.264526 31022 net.cpp:411] pool5 -> pool5
I0226 19:28:48.264573 31022 net.cpp:150] Setting up pool5
I0226 19:28:48.264585 31022 net.cpp:157] Top shape: 1 512 41 41 (860672)
I0226 19:28:48.264592 31022 net.cpp:165] Memory required for data: 258824960
I0226 19:28:48.264600 31022 layer_factory.hpp:77] Creating layer pool5a
I0226 19:28:48.264608 31022 net.cpp:106] Creating Layer pool5a
I0226 19:28:48.264616 31022 net.cpp:454] pool5a <- pool5
I0226 19:28:48.264626 31022 net.cpp:411] pool5a -> pool5a
I0226 19:28:48.264654 31022 net.cpp:150] Setting up pool5a
I0226 19:28:48.264663 31022 net.cpp:157] Top shape: 1 512 41 41 (860672)
I0226 19:28:48.264672 31022 net.cpp:165] Memory required for data: 262267648
I0226 19:28:48.264678 31022 layer_factory.hpp:77] Creating layer pool5a_pool5a_0_split
I0226 19:28:48.264699 31022 net.cpp:106] Creating Layer pool5a_pool5a_0_split
I0226 19:28:48.264708 31022 net.cpp:454] pool5a_pool5a_0_split <- pool5a
I0226 19:28:48.264719 31022 net.cpp:411] pool5a_pool5a_0_split -> pool5a_pool5a_0_split_0
I0226 19:28:48.264729 31022 net.cpp:411] pool5a_pool5a_0_split -> pool5a_pool5a_0_split_1
I0226 19:28:48.264739 31022 net.cpp:411] pool5a_pool5a_0_split -> pool5a_pool5a_0_split_2
I0226 19:28:48.264748 31022 net.cpp:411] pool5a_pool5a_0_split -> pool5a_pool5a_0_split_3
I0226 19:28:48.264812 31022 net.cpp:150] Setting up pool5a_pool5a_0_split
I0226 19:28:48.264825 31022 net.cpp:157] Top shape: 1 512 41 41 (860672)
I0226 19:28:48.264834 31022 net.cpp:157] Top shape: 1 512 41 41 (860672)
I0226 19:28:48.264842 31022 net.cpp:157] Top shape: 1 512 41 41 (860672)
I0226 19:28:48.264849 31022 net.cpp:157] Top shape: 1 512 41 41 (860672)
I0226 19:28:48.264858 31022 net.cpp:165] Memory required for data: 276038400
I0226 19:28:48.264866 31022 layer_factory.hpp:77] Creating layer fc6_1
I0226 19:28:48.264880 31022 net.cpp:106] Creating Layer fc6_1
I0226 19:28:48.264889 31022 net.cpp:454] fc6_1 <- pool5a_pool5a_0_split_0
I0226 19:28:48.264900 31022 net.cpp:411] fc6_1 -> fc6_1
I0226 19:28:48.275640 31022 net.cpp:150] Setting up fc6_1
I0226 19:28:48.275676 31022 net.cpp:157] Top shape: 1 1024 41 41 (1721344)
I0226 19:28:48.275684 31022 net.cpp:165] Memory required for data: 282923776
I0226 19:28:48.275697 31022 layer_factory.hpp:77] Creating layer relu6_1
I0226 19:28:48.275717 31022 net.cpp:106] Creating Layer relu6_1
I0226 19:28:48.275727 31022 net.cpp:454] relu6_1 <- fc6_1
I0226 19:28:48.275738 31022 net.cpp:397] relu6_1 -> fc6_1 (in-place)
I0226 19:28:48.275751 31022 net.cpp:150] Setting up relu6_1
I0226 19:28:48.275760 31022 net.cpp:157] Top shape: 1 1024 41 41 (1721344)
I0226 19:28:48.275768 31022 net.cpp:165] Memory required for data: 289809152
I0226 19:28:48.275774 31022 layer_factory.hpp:77] Creating layer drop6_1
I0226 19:28:48.275792 31022 net.cpp:106] Creating Layer drop6_1
I0226 19:28:48.275802 31022 net.cpp:454] drop6_1 <- fc6_1
I0226 19:28:48.275810 31022 net.cpp:397] drop6_1 -> fc6_1 (in-place)
I0226 19:28:48.275842 31022 net.cpp:150] Setting up drop6_1
I0226 19:28:48.275852 31022 net.cpp:157] Top shape: 1 1024 41 41 (1721344)
I0226 19:28:48.275859 31022 net.cpp:165] Memory required for data: 296694528
I0226 19:28:48.275867 31022 layer_factory.hpp:77] Creating layer fc7_1
I0226 19:28:48.275883 31022 net.cpp:106] Creating Layer fc7_1
I0226 19:28:48.275892 31022 net.cpp:454] fc7_1 <- fc6_1
I0226 19:28:48.275900 31022 net.cpp:411] fc7_1 -> fc7_1
I0226 19:28:48.278643 31022 net.cpp:150] Setting up fc7_1
I0226 19:28:48.278668 31022 net.cpp:157] Top shape: 1 1024 41 41 (1721344)
I0226 19:28:48.278676 31022 net.cpp:165] Memory required for data: 303579904
I0226 19:28:48.278687 31022 layer_factory.hpp:77] Creating layer relu7_1
I0226 19:28:48.278698 31022 net.cpp:106] Creating Layer relu7_1
I0226 19:28:48.278707 31022 net.cpp:454] relu7_1 <- fc7_1
I0226 19:28:48.278718 31022 net.cpp:397] relu7_1 -> fc7_1 (in-place)
I0226 19:28:48.278729 31022 net.cpp:150] Setting up relu7_1
I0226 19:28:48.278738 31022 net.cpp:157] Top shape: 1 1024 41 41 (1721344)
I0226 19:28:48.278745 31022 net.cpp:165] Memory required for data: 310465280
I0226 19:28:48.278753 31022 layer_factory.hpp:77] Creating layer drop7_1
I0226 19:28:48.278762 31022 net.cpp:106] Creating Layer drop7_1
I0226 19:28:48.278769 31022 net.cpp:454] drop7_1 <- fc7_1
I0226 19:28:48.278779 31022 net.cpp:397] drop7_1 -> fc7_1 (in-place)
I0226 19:28:48.278808 31022 net.cpp:150] Setting up drop7_1
I0226 19:28:48.278818 31022 net.cpp:157] Top shape: 1 1024 41 41 (1721344)
I0226 19:28:48.278825 31022 net.cpp:165] Memory required for data: 317350656
I0226 19:28:48.278832 31022 layer_factory.hpp:77] Creating layer fc8-SEC_1
I0226 19:28:48.278847 31022 net.cpp:106] Creating Layer fc8-SEC_1
I0226 19:28:48.278856 31022 net.cpp:454] fc8-SEC_1 <- fc7_1
I0226 19:28:48.278867 31022 net.cpp:411] fc8-SEC_1 -> fc8-SEC_1
I0226 19:28:48.279830 31022 net.cpp:150] Setting up fc8-SEC_1
I0226 19:28:48.279850 31022 net.cpp:157] Top shape: 1 21 41 41 (35301)
I0226 19:28:48.279857 31022 net.cpp:165] Memory required for data: 317491860
I0226 19:28:48.279867 31022 layer_factory.hpp:77] Creating layer fc6_2
I0226 19:28:48.279882 31022 net.cpp:106] Creating Layer fc6_2
I0226 19:28:48.279891 31022 net.cpp:454] fc6_2 <- pool5a_pool5a_0_split_1
I0226 19:28:48.279903 31022 net.cpp:411] fc6_2 -> fc6_2
I0226 19:28:48.290462 31022 net.cpp:150] Setting up fc6_2
I0226 19:28:48.290488 31022 net.cpp:157] Top shape: 1 1024 41 41 (1721344)
I0226 19:28:48.290495 31022 net.cpp:165] Memory required for data: 324377236
I0226 19:28:48.290515 31022 layer_factory.hpp:77] Creating layer relu6_2
I0226 19:28:48.290527 31022 net.cpp:106] Creating Layer relu6_2
I0226 19:28:48.290535 31022 net.cpp:454] relu6_2 <- fc6_2
I0226 19:28:48.290545 31022 net.cpp:397] relu6_2 -> fc6_2 (in-place)
I0226 19:28:48.290556 31022 net.cpp:150] Setting up relu6_2
I0226 19:28:48.290565 31022 net.cpp:157] Top shape: 1 1024 41 41 (1721344)
I0226 19:28:48.290571 31022 net.cpp:165] Memory required for data: 331262612
I0226 19:28:48.290580 31022 layer_factory.hpp:77] Creating layer drop6_2
I0226 19:28:48.290591 31022 net.cpp:106] Creating Layer drop6_2
I0226 19:28:48.290598 31022 net.cpp:454] drop6_2 <- fc6_2
I0226 19:28:48.290606 31022 net.cpp:397] drop6_2 -> fc6_2 (in-place)
I0226 19:28:48.290634 31022 net.cpp:150] Setting up drop6_2
I0226 19:28:48.290647 31022 net.cpp:157] Top shape: 1 1024 41 41 (1721344)
I0226 19:28:48.290653 31022 net.cpp:165] Memory required for data: 338147988
I0226 19:28:48.290660 31022 layer_factory.hpp:77] Creating layer fc7_2
I0226 19:28:48.290674 31022 net.cpp:106] Creating Layer fc7_2
I0226 19:28:48.290681 31022 net.cpp:454] fc7_2 <- fc6_2
I0226 19:28:48.290690 31022 net.cpp:411] fc7_2 -> fc7_2
I0226 19:28:48.293457 31022 net.cpp:150] Setting up fc7_2
I0226 19:28:48.293481 31022 net.cpp:157] Top shape: 1 1024 41 41 (1721344)
I0226 19:28:48.293489 31022 net.cpp:165] Memory required for data: 345033364
I0226 19:28:48.293500 31022 layer_factory.hpp:77] Creating layer relu7_2
I0226 19:28:48.293511 31022 net.cpp:106] Creating Layer relu7_2
I0226 19:28:48.293519 31022 net.cpp:454] relu7_2 <- fc7_2
I0226 19:28:48.293530 31022 net.cpp:397] relu7_2 -> fc7_2 (in-place)
I0226 19:28:48.293542 31022 net.cpp:150] Setting up relu7_2
I0226 19:28:48.293550 31022 net.cpp:157] Top shape: 1 1024 41 41 (1721344)
I0226 19:28:48.293557 31022 net.cpp:165] Memory required for data: 351918740
I0226 19:28:48.293565 31022 layer_factory.hpp:77] Creating layer drop7_2
I0226 19:28:48.293575 31022 net.cpp:106] Creating Layer drop7_2
I0226 19:28:48.293581 31022 net.cpp:454] drop7_2 <- fc7_2
I0226 19:28:48.293592 31022 net.cpp:397] drop7_2 -> fc7_2 (in-place)
I0226 19:28:48.293622 31022 net.cpp:150] Setting up drop7_2
I0226 19:28:48.293632 31022 net.cpp:157] Top shape: 1 1024 41 41 (1721344)
I0226 19:28:48.293639 31022 net.cpp:165] Memory required for data: 358804116
I0226 19:28:48.293646 31022 layer_factory.hpp:77] Creating layer fc8-SEC_2
I0226 19:28:48.293661 31022 net.cpp:106] Creating Layer fc8-SEC_2
I0226 19:28:48.293669 31022 net.cpp:454] fc8-SEC_2 <- fc7_2
I0226 19:28:48.293681 31022 net.cpp:411] fc8-SEC_2 -> fc8-SEC_2
I0226 19:28:48.294152 31022 net.cpp:150] Setting up fc8-SEC_2
I0226 19:28:48.294167 31022 net.cpp:157] Top shape: 1 21 41 41 (35301)
I0226 19:28:48.294174 31022 net.cpp:165] Memory required for data: 358945320
I0226 19:28:48.294185 31022 layer_factory.hpp:77] Creating layer fc6_3
I0226 19:28:48.294198 31022 net.cpp:106] Creating Layer fc6_3
I0226 19:28:48.294207 31022 net.cpp:454] fc6_3 <- pool5a_pool5a_0_split_2
I0226 19:28:48.294217 31022 net.cpp:411] fc6_3 -> fc6_3
I0226 19:28:48.304770 31022 net.cpp:150] Setting up fc6_3
I0226 19:28:48.304806 31022 net.cpp:157] Top shape: 1 1024 41 41 (1721344)
I0226 19:28:48.304814 31022 net.cpp:165] Memory required for data: 365830696
I0226 19:28:48.304826 31022 layer_factory.hpp:77] Creating layer relu6_3
I0226 19:28:48.304841 31022 net.cpp:106] Creating Layer relu6_3
I0226 19:28:48.304849 31022 net.cpp:454] relu6_3 <- fc6_3
I0226 19:28:48.304862 31022 net.cpp:397] relu6_3 -> fc6_3 (in-place)
I0226 19:28:48.304874 31022 net.cpp:150] Setting up relu6_3
I0226 19:28:48.304883 31022 net.cpp:157] Top shape: 1 1024 41 41 (1721344)
I0226 19:28:48.304890 31022 net.cpp:165] Memory required for data: 372716072
I0226 19:28:48.304898 31022 layer_factory.hpp:77] Creating layer drop6_3
I0226 19:28:48.304908 31022 net.cpp:106] Creating Layer drop6_3
I0226 19:28:48.304914 31022 net.cpp:454] drop6_3 <- fc6_3
I0226 19:28:48.304924 31022 net.cpp:397] drop6_3 -> fc6_3 (in-place)
I0226 19:28:48.304955 31022 net.cpp:150] Setting up drop6_3
I0226 19:28:48.304965 31022 net.cpp:157] Top shape: 1 1024 41 41 (1721344)
I0226 19:28:48.304971 31022 net.cpp:165] Memory required for data: 379601448
I0226 19:28:48.304978 31022 layer_factory.hpp:77] Creating layer fc7_3
I0226 19:28:48.304992 31022 net.cpp:106] Creating Layer fc7_3
I0226 19:28:48.305001 31022 net.cpp:454] fc7_3 <- fc6_3
I0226 19:28:48.305011 31022 net.cpp:411] fc7_3 -> fc7_3
I0226 19:28:48.307754 31022 net.cpp:150] Setting up fc7_3
I0226 19:28:48.307780 31022 net.cpp:157] Top shape: 1 1024 41 41 (1721344)
I0226 19:28:48.307787 31022 net.cpp:165] Memory required for data: 386486824
I0226 19:28:48.307799 31022 layer_factory.hpp:77] Creating layer relu7_3
I0226 19:28:48.307811 31022 net.cpp:106] Creating Layer relu7_3
I0226 19:28:48.307819 31022 net.cpp:454] relu7_3 <- fc7_3
I0226 19:28:48.307828 31022 net.cpp:397] relu7_3 -> fc7_3 (in-place)
I0226 19:28:48.307839 31022 net.cpp:150] Setting up relu7_3
I0226 19:28:48.307847 31022 net.cpp:157] Top shape: 1 1024 41 41 (1721344)
I0226 19:28:48.307854 31022 net.cpp:165] Memory required for data: 393372200
I0226 19:28:48.307862 31022 layer_factory.hpp:77] Creating layer drop7_3
I0226 19:28:48.307873 31022 net.cpp:106] Creating Layer drop7_3
I0226 19:28:48.307881 31022 net.cpp:454] drop7_3 <- fc7_3
I0226 19:28:48.307890 31022 net.cpp:397] drop7_3 -> fc7_3 (in-place)
I0226 19:28:48.307921 31022 net.cpp:150] Setting up drop7_3
I0226 19:28:48.307931 31022 net.cpp:157] Top shape: 1 1024 41 41 (1721344)
I0226 19:28:48.307938 31022 net.cpp:165] Memory required for data: 400257576
I0226 19:28:48.307945 31022 layer_factory.hpp:77] Creating layer fc8-SEC_3
I0226 19:28:48.307960 31022 net.cpp:106] Creating Layer fc8-SEC_3
I0226 19:28:48.307968 31022 net.cpp:454] fc8-SEC_3 <- fc7_3
I0226 19:28:48.307978 31022 net.cpp:411] fc8-SEC_3 -> fc8-SEC_3
I0226 19:28:48.308465 31022 net.cpp:150] Setting up fc8-SEC_3
I0226 19:28:48.308482 31022 net.cpp:157] Top shape: 1 21 41 41 (35301)
I0226 19:28:48.308490 31022 net.cpp:165] Memory required for data: 400398780
I0226 19:28:48.308501 31022 layer_factory.hpp:77] Creating layer fc6_4
I0226 19:28:48.308513 31022 net.cpp:106] Creating Layer fc6_4
I0226 19:28:48.308522 31022 net.cpp:454] fc6_4 <- pool5a_pool5a_0_split_3
I0226 19:28:48.308532 31022 net.cpp:411] fc6_4 -> fc6_4
I0226 19:28:48.319511 31022 net.cpp:150] Setting up fc6_4
I0226 19:28:48.319546 31022 net.cpp:157] Top shape: 1 1024 41 41 (1721344)
I0226 19:28:48.319555 31022 net.cpp:165] Memory required for data: 407284156
I0226 19:28:48.319569 31022 layer_factory.hpp:77] Creating layer relu6_4
I0226 19:28:48.319582 31022 net.cpp:106] Creating Layer relu6_4
I0226 19:28:48.319592 31022 net.cpp:454] relu6_4 <- fc6_4
I0226 19:28:48.319605 31022 net.cpp:397] relu6_4 -> fc6_4 (in-place)
I0226 19:28:48.319619 31022 net.cpp:150] Setting up relu6_4
I0226 19:28:48.319628 31022 net.cpp:157] Top shape: 1 1024 41 41 (1721344)
I0226 19:28:48.319634 31022 net.cpp:165] Memory required for data: 414169532
I0226 19:28:48.319641 31022 layer_factory.hpp:77] Creating layer drop6_4
I0226 19:28:48.319653 31022 net.cpp:106] Creating Layer drop6_4
I0226 19:28:48.319659 31022 net.cpp:454] drop6_4 <- fc6_4
I0226 19:28:48.319669 31022 net.cpp:397] drop6_4 -> fc6_4 (in-place)
I0226 19:28:48.319701 31022 net.cpp:150] Setting up drop6_4
I0226 19:28:48.319711 31022 net.cpp:157] Top shape: 1 1024 41 41 (1721344)
I0226 19:28:48.319718 31022 net.cpp:165] Memory required for data: 421054908
I0226 19:28:48.319725 31022 layer_factory.hpp:77] Creating layer fc7_4
I0226 19:28:48.319739 31022 net.cpp:106] Creating Layer fc7_4
I0226 19:28:48.319749 31022 net.cpp:454] fc7_4 <- fc6_4
I0226 19:28:48.319761 31022 net.cpp:411] fc7_4 -> fc7_4
I0226 19:28:48.322504 31022 net.cpp:150] Setting up fc7_4
I0226 19:28:48.322530 31022 net.cpp:157] Top shape: 1 1024 41 41 (1721344)
I0226 19:28:48.322537 31022 net.cpp:165] Memory required for data: 427940284
I0226 19:28:48.322548 31022 layer_factory.hpp:77] Creating layer relu7_4
I0226 19:28:48.322561 31022 net.cpp:106] Creating Layer relu7_4
I0226 19:28:48.322568 31022 net.cpp:454] relu7_4 <- fc7_4
I0226 19:28:48.322578 31022 net.cpp:397] relu7_4 -> fc7_4 (in-place)
I0226 19:28:48.322590 31022 net.cpp:150] Setting up relu7_4
I0226 19:28:48.322598 31022 net.cpp:157] Top shape: 1 1024 41 41 (1721344)
I0226 19:28:48.322605 31022 net.cpp:165] Memory required for data: 434825660
I0226 19:28:48.322613 31022 layer_factory.hpp:77] Creating layer drop7_4
I0226 19:28:48.322623 31022 net.cpp:106] Creating Layer drop7_4
I0226 19:28:48.322631 31022 net.cpp:454] drop7_4 <- fc7_4
I0226 19:28:48.322640 31022 net.cpp:397] drop7_4 -> fc7_4 (in-place)
I0226 19:28:48.322674 31022 net.cpp:150] Setting up drop7_4
I0226 19:28:48.322683 31022 net.cpp:157] Top shape: 1 1024 41 41 (1721344)
I0226 19:28:48.322690 31022 net.cpp:165] Memory required for data: 441711036
I0226 19:28:48.322697 31022 layer_factory.hpp:77] Creating layer fc8-SEC_4
I0226 19:28:48.322712 31022 net.cpp:106] Creating Layer fc8-SEC_4
I0226 19:28:48.322721 31022 net.cpp:454] fc8-SEC_4 <- fc7_4
I0226 19:28:48.322731 31022 net.cpp:411] fc8-SEC_4 -> fc8-SEC_4
I0226 19:28:48.323228 31022 net.cpp:150] Setting up fc8-SEC_4
I0226 19:28:48.323245 31022 net.cpp:157] Top shape: 1 21 41 41 (35301)
I0226 19:28:48.323252 31022 net.cpp:165] Memory required for data: 441852240
I0226 19:28:48.323261 31022 layer_factory.hpp:77] Creating layer fc8-SEC
I0226 19:28:48.323280 31022 net.cpp:106] Creating Layer fc8-SEC
I0226 19:28:48.323288 31022 net.cpp:454] fc8-SEC <- fc8-SEC_1
I0226 19:28:48.323297 31022 net.cpp:454] fc8-SEC <- fc8-SEC_2
I0226 19:28:48.323305 31022 net.cpp:454] fc8-SEC <- fc8-SEC_3
I0226 19:28:48.323312 31022 net.cpp:454] fc8-SEC <- fc8-SEC_4
I0226 19:28:48.323321 31022 net.cpp:411] fc8-SEC -> fc8-SEC
I0226 19:28:48.323359 31022 net.cpp:150] Setting up fc8-SEC
I0226 19:28:48.323371 31022 net.cpp:157] Top shape: 1 21 41 41 (35301)
I0226 19:28:48.323379 31022 net.cpp:165] Memory required for data: 441993444
I0226 19:28:48.323385 31022 net.cpp:228] fc8-SEC does not need backward computation.
I0226 19:28:48.323393 31022 net.cpp:228] fc8-SEC_4 does not need backward computation.
I0226 19:28:48.323400 31022 net.cpp:228] drop7_4 does not need backward computation.
I0226 19:28:48.323407 31022 net.cpp:228] relu7_4 does not need backward computation.
…
I0227 04:34:42.833884 20800 solver.cpp:81] Creating training net from train_net file: train-f.prototxt
I0227 04:34:42.836472 20800 net.cpp:49] Initializing net from parameters:
name: "DSRG"
state {
  phase: TRAIN
}
layer {
  name: "data"
  type: "Python"
  top: "images"
  top: "label"
  include {
    phase: TRAIN
  }
  python_param {
    module: "pylayers.layer"
    layer: "ImageSegDataLayer"
    param_str: "{\'batch_size\':10 ,\'root_folder\': \'/media/ssd1/austin/datasets/VOC/VOCdevkit/VOC2012/\' ,\'mean\': (104.0, 117.0, 123.0), \'source\': \'list/train.txt\', \'mirror\': True, \'crop_size\': (321, 321)}"
  }
}
layer {
  name: "conv1_1"
  type: "Convolution"
  bottom: "images"
  top: "conv1_1"
  param {
    lr_mult: 1
    decay_mult: 1
  }
  param {
    lr_mult: 2
    decay_mult: 0
  }
  convolution_param {
    num_output: 64
    pad: 1
    kernel_size: 3
  }
}
layer {
  name: "relu1_1"
  type: "ReLU"
  bottom: "conv1_1"
  top: "conv1_1"
}
layer {
  name: "conv1_2"
  type: "Convolution"
  bottom: "conv1_1"
  top: "conv1_2"
  param {
    lr_mult: 1
    decay_mult: 1
  }
  param {
    lr_mult: 2
    decay_mult: 0
  }
  convolution_param {
    num_output: 64
    pad: 1
    kernel_size: 3
  }
}
layer {
  name: "relu1_2"
  type: "ReLU"
  bottom: "conv1_2"
  top: "conv1_2"
}
layer {
  name: "pool1"
  type: "Pooling"
  bottom: "conv1_2"
  top: "pool1"
  pooling_param {
    pool: MAX
    kernel_size: 3
    stride: 2
    pad: 1
  }
}
layer {
  name: "conv2_1"
  type: "Convolution"
  bottom: "pool1"
  top: "conv2_1"
  param {
    lr_mult: 1
    decay_mult: 1
  }
  param {
    lr_mult: 2
    decay_mult: 0
  }
  convolution_param {
    num_output: 128
    pad: 1
    kernel_size: 3
  }
}
layer {
  name: "relu2_1"
  type: "ReLU"
  bottom: "conv2_1"
  top: "conv2_1"
}
layer {
  name: "conv2_2"
  type: "Convolution"
  bottom: "conv2_1"
  top: "conv2_2"
  param {
    lr_mult: 1
    decay_mult: 1
  }
  param {
    lr_mult: 2
    decay_mult: 0
  }
  convolution_param {
    num_output: 128
    pad: 1
    kernel_size: 3
  }
}
layer {
  name: "relu2_2"
  type: "ReLU"
  bottom: "conv2_2"
  top: "conv2_2"
}
layer {
  name: "pool2"
  type: "Pooling"
  bottom: "conv2_2"
  top: "pool2"
  pooling_param {
    pool: MAX
    kernel_size: 3
    stride: 2
    pad: 1
  }
}
layer {
  name: "conv3_1"
  type: "Convolution"
  bottom: "pool2"
  top: "conv3_1"
  param {
    lr_mult: 1
    decay_mult: 1
  }
  param {
    lr_mult: 2
    decay_mult: 0
  }
  convolution_param {
    num_output: 256
    pad: 1
    kernel_size: 3
  }
}
layer {
  name: "relu3_1"
  type: "ReLU"
  bottom: "conv3_1"
  top: "conv3_1"
}
layer {
  name: "conv3_2"
  type: "Convolution"
  bottom: "conv3_1"
  top: "conv3_2"
  param {
    lr_mult: 1
    decay_mult: 1
  }
  param {
    lr_mult: 2
    decay_mult: 0
  }
  convolution_param {
    num_output: 256
    pad: 1
    kernel_size: 3
  }
}
layer {
  name: "relu3_2"
  type: "ReLU"
  bottom: "conv3_2"
  top: "conv3_2"
}
layer {
  name: "conv3_3"
  type: "Convolution"
  bottom: "conv3_2"
  top: "conv3_3"
  param {
    lr_mult: 1
    decay_mult: 1
  }
  param {
    lr_mult: 2
    decay_mult: 0
  }
  convolution_param {
    num_output: 256
    pad: 1
    kernel_size: 3
  }
}
layer {
  name: "relu3_3"
  type: "ReLU"
  bottom: "conv3_3"
  top: "conv3_3"
}
layer {
  name: "pool3"
  type: "Pooling"
  bottom: "conv3_3"
  top: "pool3"
  pooling_param {
    pool: MAX
    kernel_size: 3
    stride: 2
    pad: 1
  }
}
layer {
  name: "conv4_1"
  type: "Convolution"
  bottom: "pool3"
  top: "conv4_1"
  param {
    lr_mult: 1
    decay_mult: 1
  }
  param {
    lr_mult: 2
    decay_mult: 0
  }
  convolution_param {
    num_output: 512
    pad: 1
    kernel_size: 3
  }
}
layer {
  name: "relu4_1"
  type: "ReLU"
  bottom: "conv4_1"
  top: "conv4_1"
}
layer {
  name: "conv4_2"
  type: "Convolution"
  bottom: "conv4_1"
  top: "conv4_2"
  param {
    lr_mult: 1
    decay_mult: 1
  }
  param {
    lr_mult: 2
    decay_mult: 0
  }
  convolution_param {
    num_output: 512
    pad: 1
    kernel_size: 3
  }
}
layer {
  name: "relu4_2"
  type: "ReLU"
  bottom: "conv4_2"
  top: "conv4_2"
}
layer {
  name: "conv4_3"
  type: "Convolution"
  bottom: "conv4_2"
  top: "conv4_3"
  param {
    lr_mult: 1
    decay_mult: 1
  }
  param {
    lr_mult: 2
    decay_mult: 0
  }
  convolution_param {
    num_output: 512
    pad: 1
    kernel_size: 3
  }
}
layer {
  name: "relu4_3"
  type: "ReLU"
  bottom: "conv4_3"
  top: "conv4_3"
}
layer {
  name: "pool4"
  type: "Pooling"
  bottom: "conv4_3"
  top: "pool4"
  pooling_param {
    pool: MAX
    kernel_size: 3
    stride: 1
    pad: 1
  }
}
layer {
  name: "conv5_1"
  type: "Convolution"
  bottom: "pool4"
  top: "conv5_1"
  param {
    lr_mult: 1
    decay_mult: 1
  }
  param {
    lr_mult: 2
    decay_mult: 0
  }
  convolution_param {
    num_output: 512
    pad: 2
    kernel_size: 3
    dilation: 2
  }
}
layer {
  name: "relu5_1"
  type: "ReLU"
  bottom: "conv5_1"
  top: "conv5_1"
}
layer {
  name: "conv5_2"
  type: "Convolution"
  bottom: "conv5_1"
  top: "conv5_2"
  param {
    lr_mult: 1
    decay_mult: 1
  }
  param {
    lr_mult: 2
    decay_mult: 0
  }
  convolution_param {
    num_output: 512
    pad: 2
    kernel_size: 3
    dilation: 2
  }
}
layer {
  name: "relu5_2"
  type: "ReLU"
  bottom: "conv5_2"
  top: "conv5_2"
}
layer {
  name: "conv5_3"
  type: "Convolution"
  bottom: "conv5_2"
  top: "conv5_3"
  param {
    lr_mult: 1
    decay_mult: 1
  }
  param {
    lr_mult: 2
    decay_mult: 0
  }
  convolution_param {
    num_output: 512
    pad: 2
    kernel_size: 3
    dilation: 2
  }
}
layer {
  name: "relu5_3"
  type: "ReLU"
  bottom: "conv5_3"
  top: "conv5_3"
}
layer {
  name: "pool5"
  type: "Pooling"
  bottom: "conv5_3"
  top: "pool5"
  pooling_param {
    pool: MAX
    kernel_size: 3
    stride: 1
    pad: 1
  }
}
layer {
  name: "pool5a"
  type: "Pooling"
  bottom: "pool5"
  top: "pool5a"
  pooling_param {
    pool: AVE
    kernel_size: 3
    stride: 1
    pad: 1
  }
}
layer {
  name: "fc6_1"
  type: "Convolution"
  bottom: "pool5a"
  top: "fc6_1"
  param {
    lr_mult: 1
    decay_mult: 1
  }
  param {
    lr_mult: 2
    decay_mult: 0
  }
  convolution_param {
    num_output: 1024
    pad: 6
    kernel_size: 3
    dilation: 6
  }
}
layer {
  name: "relu6_1"
  type: "ReLU"
  bottom: "fc6_1"
  top: "fc6_1"
}
layer {
  name: "drop6_1"
  type: "Dropout"
  bottom: "fc6_1"
  top: "fc6_1"
  dropout_param {
    dropout_ratio: 0.5
  }
}
layer {
  name: "fc7_1"
  type: "Convolution"
  bottom: "fc6_1"
  top: "fc7_1"
  param {
    lr_mult: 1
    decay_mult: 1
  }
  param {
    lr_mult: 2
    decay_mult: 0
  }
  convolution_param {
    num_output: 1024
    kernel_size: 1
  }
}
layer {
  name: "relu7_1"
  type: "ReLU"
  bottom: "fc7_1"
  top: "fc7_1"
}
layer {
  name: "drop7_1"
  type: "Dropout"
  bottom: "fc7_1"
  top: "fc7_1"
  dropout_param {
    dropout_ratio: 0.5
  }
}
layer {
  name: "fc8-SEC_1"
  type: "Convolution"
  bottom: "fc7_1"
  top: "fc8-SEC_1"
  param {
    lr_mult: 10
    decay_mult: 1
  }
  param {
    lr_mult: 20
    decay_mult: 0
  }
  convolution_param {
    num_output: 21
    kernel_size: 1
    weight_filler {
      type: "gaussian"
      std: 0.01
    }
    bias_filler {
      type: "constant"
      value: 0
    }
  }
}
layer {
  name: "fc6_2"
  type: "Convolution"
  bottom: "pool5a"
  top: "fc6_2"
  param {
    lr_mult: 1
    decay_mult: 1
  }
  param {
    lr_mult: 2
    decay_mult: 0
  }
  convolution_param {
    num_output: 1024
    pad: 12
    kernel_size: 3
    dilation: 12
  }
}
layer {
  name: "relu6_2"
  type: "ReLU"
  bottom: "fc6_2"
  top: "fc6_2"
}
layer {
  name: "drop6_2"
  type: "Dropout"
  bottom: "fc6_2"
  top: "fc6_2"
  dropout_param {
    dropout_ratio: 0.5
  }
}
layer {
  name: "fc7_2"
  type: "Convolution"
  bottom: "fc6_2"
  top: "fc7_2"
  param {
    lr_mult: 1
    decay_mult: 1
  }
  param {
    lr_mult: 2
    decay_mult: 0
  }
  convolution_param {
    num_output: 1024
    kernel_size: 1
  }
}
layer {
  name: "relu7_2"
  type: "ReLU"
  bottom: "fc7_2"
  top: "fc7_2"
}
layer {
  name: "drop7_2"
  type: "Dropout"
  bottom: "fc7_2"
  top: "fc7_2"
  dropout_param {
    dropout_ratio: 0.5
  }
}
layer {
  name: "fc8-SEC_2"
  type: "Convolution"
  bottom: "fc7_2"
  top: "fc8-SEC_2"
  param {
    lr_mult: 10
    decay_mult: 1
  }
  param {
    lr_mult: 20
    decay_mult: 0
  }
  convolution_param {
    num_output: 21
    kernel_size: 1
    weight_filler {
      type: "gaussian"
      std: 0.01
    }
    bias_filler {
      type: "constant"
      value: 0
    }
  }
}
layer {
  name: "fc6_3"
  type: "Convolution"
  bottom: "pool5a"
  top: "fc6_3"
  param {
    lr_mult: 1
    decay_mult: 1
  }
  param {
    lr_mult: 2
    decay_mult: 0
  }
  convolution_param {
    num_output: 1024
    pad: 18
    kernel_size: 3
    dilation: 18
  }
}
layer {
  name: "relu6_3"
  type: "ReLU"
  bottom: "fc6_3"
  top: "fc6_3"
}
layer {
  name: "drop6_3"
  type: "Dropout"
  bottom: "fc6_3"
  top: "fc6_3"
  dropout_param {
    dropout_ratio: 0.5
  }
}
layer {
  name: "fc7_3"
  type: "Convolution"
  bottom: "fc6_3"
  top: "fc7_3"
  param {
    lr_mult: 1
    decay_mult: 1
  }
  param {
    lr_mult: 2
    decay_mult: 0
  }
  convolution_param {
    num_output: 1024
    kernel_size: 1
  }
}
layer {
  name: "relu7_3"
  type: "ReLU"
  bottom: "fc7_3"
  top: "fc7_3"
}
layer {
  name: "drop7_3"
  type: "Dropout"
  bottom: "fc7_3"
  top: "fc7_3"
  dropout_param {
    dropout_ratio: 0.5
  }
}
layer {
  name: "fc8-SEC_3"
  type: "Convolution"
  bottom: "fc7_3"
  top: "fc8-SEC_3"
  param {
    lr_mult: 10
    decay_mult: 1
  }
  param {
    lr_mult: 20
    decay_mult: 0
  }
  convolution_param {
    num_output: 21
    kernel_size: 1
    weight_filler {
      type: "gaussian"
      std: 0.01
    }
    bias_filler {
      type: "constant"
      value: 0
    }
  }
}
layer {
  name: "fc6_4"
  type: "Convolution"
  bottom: "pool5a"
  top: "fc6_4"
  param {
    lr_mult: 1
    decay_mult: 1
  }
  param {
    lr_mult: 2
    decay_mult: 0
  }
  convolution_param {
    num_output: 1024
    pad: 24
    kernel_size: 3
    dilation: 24
  }
}
layer {
  name: "relu6_4"
  type: "ReLU"
  bottom: "fc6_4"
  top: "fc6_4"
}
layer {
  name: "drop6_4"
  type: "Dropout"
  bottom: "fc6_4"
  top: "fc6_4"
  dropout_param {
    dropout_ratio: 0.5
  }
}
layer {
  name: "fc7_4"
  type: "Convolution"
  bottom: "fc6_4"
  top: "fc7_4"
  param {
    lr_mult: 1
    decay_mult: 1
  }
  param {
    lr_mult: 2
    decay_mult: 0
  }
  convolution_param {
    num_output: 1024
    kernel_size: 1
  }
}
layer {
  name: "relu7_4"
  type: "ReLU"
  bottom: "fc7_4"
  top: "fc7_4"
}
layer {
  name: "drop7_4"
  type: "Dropout"
  bottom: "fc7_4"
  top: "fc7_4"
  dropout_param {
    dropout_ratio: 0.5
  }
}
layer {
  name: "fc8-SEC_4"
  type: "Convolution"
  bottom: "fc7_4"
  top: "fc8-SEC_4"
  param {
    lr_mult: 10
    decay_mult: 1
  }
  param {
    lr_mult: 20
    decay_mult: 0
  }
  convolution_param {
    num_output: 21
    kernel_size: 1
    weight_filler {
      type: "gaussian"
      std: 0.01
    }
    bias_filler {
      type: "constant"
      value: 0
    }
  }
}
layer {
  name: "fc8-SEC"
  type: "Eltwise"
  bottom: "fc8-SEC_1"
  bottom: "fc8-SEC_2"
  bottom: "fc8-SEC_3"
  bottom: "fc8-SEC_4"
  top: "fc8-SEC"
  eltwise_param {
    operation: SUM
  }
}
layer {
  name: "label_shrink"
  type: "Interp"
  bottom: "label"
  top: "label_shrink"
  interp_param {
    shrink_factor: 8
    pad_beg: 0
    pad_end: 0
  }
}
layer {
  name: "loss"
  type: "SoftmaxWithLoss"
  bottom: "fc8-SEC"
  bottom: "label_shrink"
  loss_weight: 1
  include {
    phase: TRAIN
  }
  loss_param {
    ignore_label: 255
  }
}
layer {
  name: "accuracy"
  type: "SegAccuracy"
  bottom: "fc8-SEC"
  bottom: "label_shrink"
  top: "accuracy"
  seg_accuracy_param {
    ignore_label: 255
  }
}
I0227 04:34:42.837687 20800 layer_factory.hpp:77] Creating layer data
I0227 04:34:43.791553 20800 net.cpp:106] Creating Layer data
I0227 04:34:43.791621 20800 net.cpp:411] data -> images
I0227 04:34:43.791662 20800 net.cpp:411] data -> label
BatchLoader initialized with 10582 images
ImageSegDataLayer initialized for split: list/train.txt, with bs: 10, im_shape: (321, 321).
I0227 04:34:43.821753 20800 net.cpp:150] Setting up data
I0227 04:34:43.821772 20800 net.cpp:157] Top shape: 10 3 321 321 (3091230)
I0227 04:34:43.821782 20800 net.cpp:157] Top shape: 10 1 321 321 (1030410)
I0227 04:34:43.821789 20800 net.cpp:165] Memory required for data: 16486560
I0227 04:34:43.821797 20800 layer_factory.hpp:77] Creating layer conv1_1
I0227 04:34:43.821815 20800 net.cpp:106] Creating Layer conv1_1
I0227 04:34:43.821822 20800 net.cpp:454] conv1_1 <- images
I0227 04:34:43.821832 20800 net.cpp:411] conv1_1 -> conv1_1
I0227 04:34:43.824815 20800 net.cpp:150] Setting up conv1_1
I0227 04:34:43.824837 20800 net.cpp:157] Top shape: 10 64 321 321 (65946240)
I0227 04:34:43.824846 20800 net.cpp:165] Memory required for data: 280271520
I0227 04:34:43.824867 20800 layer_factory.hpp:77] Creating layer relu1_1
I0227 04:34:43.824879 20800 net.cpp:106] Creating Layer relu1_1
I0227 04:34:43.824885 20800 net.cpp:454] relu1_1 <- conv1_1
I0227 04:34:43.824894 20800 net.cpp:397] relu1_1 -> conv1_1 (in-place)
I0227 04:34:43.824906 20800 net.cpp:150] Setting up relu1_1
I0227 04:34:43.824914 20800 net.cpp:157] Top shape: 10 64 321 321 (65946240)
I0227 04:34:43.824920 20800 net.cpp:165] Memory required for data: 544056480
I0227 04:34:43.824926 20800 layer_factory.hpp:77] Creating layer conv1_2
I0227 04:34:43.824936 20800 net.cpp:106] Creating Layer conv1_2
I0227 04:34:43.824942 20800 net.cpp:454] conv1_2 <- conv1_1
I0227 04:34:43.824950 20800 net.cpp:411] conv1_2 -> conv1_2
I0227 04:34:43.830606 20800 net.cpp:150] Setting up conv1_2
I0227 04:34:43.830644 20800 net.cpp:157] Top shape: 10 64 321 321 (65946240)
I0227 04:34:43.830652 20800 net.cpp:165] Memory required for data: 807841440
I0227 04:34:43.830664 20800 layer_factory.hpp:77] Creating layer relu1_2
I0227 04:34:43.830677 20800 net.cpp:106] Creating Layer relu1_2
I0227 04:34:43.830684 20800 net.cpp:454] relu1_2 <- conv1_2
I0227 04:34:43.830693 20800 net.cpp:397] relu1_2 -> conv1_2 (in-place)
I0227 04:34:43.830701 20800 net.cpp:150] Setting up relu1_2
I0227 04:34:43.830709 20800 net.cpp:157] Top shape: 10 64 321 321 (65946240)
I0227 04:34:43.830714 20800 net.cpp:165] Memory required for data: 1071626400
I0227 04:34:43.830720 20800 layer_factory.hpp:77] Creating layer pool1
I0227 04:34:43.830731 20800 net.cpp:106] Creating Layer pool1
I0227 04:34:43.830739 20800 net.cpp:454] pool1 <- conv1_2
I0227 04:34:43.830745 20800 net.cpp:411] pool1 -> pool1
I0227 04:34:43.830785 20800 net.cpp:150] Setting up pool1
I0227 04:34:43.830794 20800 net.cpp:157] Top shape: 10 64 161 161 (16589440)
I0227 04:34:43.830801 20800 net.cpp:165] Memory required for data: 1137984160
I0227 04:34:43.830808 20800 layer_factory.hpp:77] Creating layer conv2_1
I0227 04:34:43.830819 20800 net.cpp:106] Creating Layer conv2_1
I0227 04:34:43.830826 20800 net.cpp:454] conv2_1 <- pool1
I0227 04:34:43.830833 20800 net.cpp:411] conv2_1 -> conv2_1
I0227 04:34:43.831092 20800 net.cpp:150] Setting up conv2_1
I0227 04:34:43.831109 20800 net.cpp:157] Top shape: 10 128 161 161 (33178880)
I0227 04:34:43.831115 20800 net.cpp:165] Memory required for data: 1270699680
I0227 04:34:43.831126 20800 layer_factory.hpp:77] Creating layer relu2_1
I0227 04:34:43.831135 20800 net.cpp:106] Creating Layer relu2_1
I0227 04:34:43.831141 20800 net.cpp:454] relu2_1 <- conv2_1
I0227 04:34:43.831151 20800 net.cpp:397] relu2_1 -> conv2_1 (in-place)
I0227 04:34:43.831159 20800 net.cpp:150] Setting up relu2_1
I0227 04:34:43.831167 20800 net.cpp:157] Top shape: 10 128 161 161 (33178880)
I0227 04:34:43.831172 20800 net.cpp:165] Memory required for data: 1403415200
I0227 04:34:43.831179 20800 layer_factory.hpp:77] Creating layer conv2_2
I0227 04:34:43.831212 20800 net.cpp:106] Creating Layer conv2_2
I0227 04:34:43.831225 20800 net.cpp:454] conv2_2 <- conv2_1
I0227 04:34:43.831240 20800 net.cpp:411] conv2_2 -> conv2_2
I0227 04:34:43.831861 20800 net.cpp:150] Setting up conv2_2
I0227 04:34:43.831887 20800 net.cpp:157] Top shape: 10 128 161 161 (33178880)
I0227 04:34:43.831898 20800 net.cpp:165] Memory required for data: 1536130720
I0227 04:34:43.831917 20800 layer_factory.hpp:77] Creating layer relu2_2
I0227 04:34:43.831933 20800 net.cpp:106] Creating Layer relu2_2
I0227 04:34:43.831945 20800 net.cpp:454] relu2_2 <- conv2_2
I0227 04:34:43.831959 20800 net.cpp:397] relu2_2 -> conv2_2 (in-place)
I0227 04:34:43.831975 20800 net.cpp:150] Setting up relu2_2
I0227 04:34:43.831990 20800 net.cpp:157] Top shape: 10 128 161 161 (33178880)
I0227 04:34:43.832002 20800 net.cpp:165] Memory required for data: 1668846240
I0227 04:34:43.832016 20800 layer_factory.hpp:77] Creating layer pool2
I0227 04:34:43.832034 20800 net.cpp:106] Creating Layer pool2
I0227 04:34:43.832046 20800 net.cpp:454] pool2 <- conv2_2
I0227 04:34:43.832064 20800 net.cpp:411] pool2 -> pool2
I0227 04:34:43.832134 20800 net.cpp:150] Setting up pool2
I0227 04:34:43.832154 20800 net.cpp:157] Top shape: 10 128 81 81 (8398080)
I0227 04:34:43.832166 20800 net.cpp:165] Memory required for data: 1702438560
I0227 04:34:43.832180 20800 layer_factory.hpp:77] Creating layer conv3_1
I0227 04:34:43.832201 20800 net.cpp:106] Creating Layer conv3_1
I0227 04:34:43.832214 20800 net.cpp:454] conv3_1 <- pool2
I0227 04:34:43.832232 20800 net.cpp:411] conv3_1 -> conv3_1
I0227 04:34:43.840297 20800 net.cpp:150] Setting up conv3_1
I0227 04:34:43.840343 20800 net.cpp:157] Top shape: 10 256 81 81 (16796160)
I0227 04:34:43.840358 20800 net.cpp:165] Memory required for data: 1769623200
I0227 04:34:43.840387 20800 layer_factory.hpp:77] Creating layer relu3_1
I0227 04:34:43.840411 20800 net.cpp:106] Creating Layer relu3_1
I0227 04:34:43.840426 20800 net.cpp:454] relu3_1 <- conv3_1
I0227 04:34:43.840445 20800 net.cpp:397] relu3_1 -> conv3_1 (in-place)
I0227 04:34:43.840468 20800 net.cpp:150] Setting up relu3_1
I0227 04:34:43.840485 20800 net.cpp:157] Top shape: 10 256 81 81 (16796160)
I0227 04:34:43.840498 20800 net.cpp:165] Memory required for data: 1836807840
I0227 04:34:43.840512 20800 layer_factory.hpp:77] Creating layer conv3_2
I0227 04:34:43.840539 20800 net.cpp:106] Creating Layer conv3_2
I0227 04:34:43.840553 20800 net.cpp:454] conv3_2 <- conv3_1
I0227 04:34:43.840574 20800 net.cpp:411] conv3_2 -> conv3_2
I0227 04:34:43.843533 20800 net.cpp:150] Setting up conv3_2
I0227 04:34:43.843575 20800 net.cpp:157] Top shape: 10 256 81 81 (16796160)
I0227 04:34:43.843590 20800 net.cpp:165] Memory required for data: 1903992480
I0227 04:34:43.843611 20800 layer_factory.hpp:77] Creating layer relu3_2
I0227 04:34:43.843631 20800 net.cpp:106] Creating Layer relu3_2
I0227 04:34:43.843647 20800 net.cpp:454] relu3_2 <- conv3_2
I0227 04:34:43.843663 20800 net.cpp:397] relu3_2 -> conv3_2 (in-place)
I0227 04:34:43.843683 20800 net.cpp:150] Setting up relu3_2
I0227 04:34:43.843700 20800 net.cpp:157] Top shape: 10 256 81 81 (16796160)
I0227 04:34:43.843713 20800 net.cpp:165] Memory required for data: 1971177120
I0227 04:34:43.843726 20800 layer_factory.hpp:77] Creating layer conv3_3
I0227 04:34:43.843750 20800 net.cpp:106] Creating Layer conv3_3
I0227 04:34:43.843766 20800 net.cpp:454] conv3_3 <- conv3_2
I0227 04:34:43.843783 20800 net.cpp:411] conv3_3 -> conv3_3
I0227 04:34:43.846860 20800 net.cpp:150] Setting up conv3_3
I0227 04:34:43.846925 20800 net.cpp:157] Top shape: 10 256 81 81 (16796160)
I0227 04:34:43.846940 20800 net.cpp:165] Memory required for data: 2038361760
I0227 04:34:43.846964 20800 layer_factory.hpp:77] Creating layer relu3_3
I0227 04:34:43.846987 20800 net.cpp:106] Creating Layer relu3_3
I0227 04:34:43.847002 20800 net.cpp:454] relu3_3 <- conv3_3
I0227 04:34:43.847034 20800 net.cpp:397] relu3_3 -> conv3_3 (in-place)
I0227 04:34:43.847044 20800 net.cpp:150] Setting up relu3_3
I0227 04:34:43.847051 20800 net.cpp:157] Top shape: 10 256 81 81 (16796160)
I0227 04:34:43.847057 20800 net.cpp:165] Memory required for data: 2105546400
I0227 04:34:43.847064 20800 layer_factory.hpp:77] Creating layer pool3
I0227 04:34:43.847075 20800 net.cpp:106] Creating Layer pool3
I0227 04:34:43.847081 20800 net.cpp:454] pool3 <- conv3_3
I0227 04:34:43.847090 20800 net.cpp:411] pool3 -> pool3
I0227 04:34:43.847127 20800 net.cpp:150] Setting up pool3
I0227 04:34:43.847139 20800 net.cpp:157] Top shape: 10 256 41 41 (4303360)
I0227 04:34:43.847153 20800 net.cpp:165] Memory required for data: 2122759840
I0227 04:34:43.847160 20800 layer_factory.hpp:77] Creating layer conv4_1
I0227 04:34:43.847172 20800 net.cpp:106] Creating Layer conv4_1
I0227 04:34:43.847179 20800 net.cpp:454] conv4_1 <- pool3
I0227 04:34:43.847187 20800 net.cpp:411] conv4_1 -> conv4_1
I0227 04:34:43.850803 20800 net.cpp:150] Setting up conv4_1
I0227 04:34:43.850839 20800 net.cpp:157] Top shape: 10 512 41 41 (8606720)
I0227 04:34:43.850847 20800 net.cpp:165] Memory required for data: 2157186720
I0227 04:34:43.850857 20800 layer_factory.hpp:77] Creating layer relu4_1
I0227 04:34:43.850867 20800 net.cpp:106] Creating Layer relu4_1
I0227 04:34:43.850881 20800 net.cpp:454] relu4_1 <- conv4_1
I0227 04:34:43.850893 20800 net.cpp:397] relu4_1 -> conv4_1 (in-place)
I0227 04:34:43.850903 20800 net.cpp:150] Setting up relu4_1
I0227 04:34:43.850919 20800 net.cpp:157] Top shape: 10 512 41 41 (8606720)
I0227 04:34:43.850925 20800 net.cpp:165] Memory required for data: 2191613600
I0227 04:34:43.850932 20800 layer_factory.hpp:77] Creating layer conv4_2
I0227 04:34:43.850945 20800 net.cpp:106] Creating Layer conv4_2
I0227 04:34:43.850951 20800 net.cpp:454] conv4_2 <- conv4_1
I0227 04:34:43.850960 20800 net.cpp:411] conv4_2 -> conv4_2
I0227 04:34:43.855823 20800 net.cpp:150] Setting up conv4_2
I0227 04:34:43.855857 20800 net.cpp:157] Top shape: 10 512 41 41 (8606720)
I0227 04:34:43.855864 20800 net.cpp:165] Memory required for data: 2226040480
I0227 04:34:43.855877 20800 layer_factory.hpp:77] Creating layer relu4_2
I0227 04:34:43.855886 20800 net.cpp:106] Creating Layer relu4_2
I0227 04:34:43.855892 20800 net.cpp:454] relu4_2 <- conv4_2
I0227 04:34:43.855901 20800 net.cpp:397] relu4_2 -> conv4_2 (in-place)
I0227 04:34:43.855908 20800 net.cpp:150] Setting up relu4_2
I0227 04:34:43.855916 20800 net.cpp:157] Top shape: 10 512 41 41 (8606720)
I0227 04:34:43.855921 20800 net.cpp:165] Memory required for data: 2260467360
I0227 04:34:43.855927 20800 layer_factory.hpp:77] Creating layer conv4_3
I0227 04:34:43.855938 20800 net.cpp:106] Creating Layer conv4_3
I0227 04:34:43.855944 20800 net.cpp:454] conv4_3 <- conv4_2
I0227 04:34:43.855954 20800 net.cpp:411] conv4_3 -> conv4_3
I0227 04:34:43.860682 20800 net.cpp:150] Setting up conv4_3
I0227 04:34:43.860715 20800 net.cpp:157] Top shape: 10 512 41 41 (8606720)
I0227 04:34:43.860721 20800 net.cpp:165] Memory required for data: 2294894240
I0227 04:34:43.860730 20800 layer_factory.hpp:77] Creating layer relu4_3
I0227 04:34:43.860740 20800 net.cpp:106] Creating Layer relu4_3
I0227 04:34:43.860747 20800 net.cpp:454] relu4_3 <- conv4_3
I0227 04:34:43.860756 20800 net.cpp:397] relu4_3 -> conv4_3 (in-place)
I0227 04:34:43.860765 20800 net.cpp:150] Setting up relu4_3
I0227 04:34:43.860772 20800 net.cpp:157] Top shape: 10 512 41 41 (8606720)
I0227 04:34:43.860779 20800 net.cpp:165] Memory required for data: 2329321120
I0227 04:34:43.860783 20800 layer_factory.hpp:77] Creating layer pool4
I0227 04:34:43.860791 20800 net.cpp:106] Creating Layer pool4
I0227 04:34:43.860796 20800 net.cpp:454] pool4 <- conv4_3
I0227 04:34:43.860803 20800 net.cpp:411] pool4 -> pool4
I0227 04:34:43.860839 20800 net.cpp:150] Setting up pool4
I0227 04:34:43.860848 20800 net.cpp:157] Top shape: 10 512 41 41 (8606720)
I0227 04:34:43.860853 20800 net.cpp:165] Memory required for data: 2363748000
I0227 04:34:43.860858 20800 layer_factory.hpp:77] Creating layer conv5_1
I0227 04:34:43.860870 20800 net.cpp:106] Creating Layer conv5_1
I0227 04:34:43.860877 20800 net.cpp:454] conv5_1 <- pool4
I0227 04:34:43.860886 20800 net.cpp:411] conv5_1 -> conv5_1
I0227 04:34:43.865996 20800 net.cpp:150] Setting up conv5_1
I0227 04:34:43.866031 20800 net.cpp:157] Top shape: 10 512 41 41 (8606720)
I0227 04:34:43.866037 20800 net.cpp:165] Memory required for data: 2398174880
I0227 04:34:43.866046 20800 layer_factory.hpp:77] Creating layer relu5_1
I0227 04:34:43.866056 20800 net.cpp:106] Creating Layer relu5_1
I0227 04:34:43.866062 20800 net.cpp:454] relu5_1 <- conv5_1
I0227 04:34:43.866072 20800 net.cpp:397] relu5_1 -> conv5_1 (in-place)
I0227 04:34:43.866081 20800 net.cpp:150] Setting up relu5_1
I0227 04:34:43.866088 20800 net.cpp:157] Top shape: 10 512 41 41 (8606720)
I0227 04:34:43.866094 20800 net.cpp:165] Memory required for data: 2432601760
I0227 04:34:43.866099 20800 layer_factory.hpp:77] Creating layer conv5_2
I0227 04:34:43.866111 20800 net.cpp:106] Creating Layer conv5_2
I0227 04:34:43.866118 20800 net.cpp:454] conv5_2 <- conv5_1
I0227 04:34:43.866125 20800 net.cpp:411] conv5_2 -> conv5_2
I0227 04:34:43.871304 20800 net.cpp:150] Setting up conv5_2
I0227 04:34:43.871336 20800 net.cpp:157] Top shape: 10 512 41 41 (8606720)
I0227 04:34:43.871358 20800 net.cpp:165] Memory required for data: 2467028640
I0227 04:34:43.871368 20800 layer_factory.hpp:77] Creating layer relu5_2
I0227 04:34:43.871377 20800 net.cpp:106] Creating Layer relu5_2
I0227 04:34:43.871384 20800 net.cpp:454] relu5_2 <- conv5_2
I0227 04:34:43.871409 20800 net.cpp:397] relu5_2 -> conv5_2 (in-place)
I0227 04:34:43.871421 20800 net.cpp:150] Setting up relu5_2
I0227 04:34:43.871430 20800 net.cpp:157] Top shape: 10 512 41 41 (8606720)
I0227 04:34:43.871438 20800 net.cpp:165] Memory required for data: 2501455520
I0227 04:34:43.871444 20800 layer_factory.hpp:77] Creating layer conv5_3
I0227 04:34:43.871457 20800 net.cpp:106] Creating Layer conv5_3
I0227 04:34:43.871467 20800 net.cpp:454] conv5_3 <- conv5_2
I0227 04:34:43.871476 20800 net.cpp:411] conv5_3 -> conv5_3
I0227 04:34:43.877902 20800 net.cpp:150] Setting up conv5_3
I0227 04:34:43.877929 20800 net.cpp:157] Top shape: 10 512 41 41 (8606720)
I0227 04:34:43.877938 20800 net.cpp:165] Memory required for data: 2535882400
I0227 04:34:43.877949 20800 layer_factory.hpp:77] Creating layer relu5_3
I0227 04:34:43.877964 20800 net.cpp:106] Creating Layer relu5_3
I0227 04:34:43.877974 20800 net.cpp:454] relu5_3 <- conv5_3
I0227 04:34:43.877984 20800 net.cpp:397] relu5_3 -> conv5_3 (in-place)
I0227 04:34:43.877995 20800 net.cpp:150] Setting up relu5_3
I0227 04:34:43.878005 20800 net.cpp:157] Top shape: 10 512 41 41 (8606720)
I0227 04:34:43.878011 20800 net.cpp:165] Memory required for data: 2570309280
I0227 04:34:43.878018 20800 layer_factory.hpp:77] Creating layer pool5
I0227 04:34:43.878031 20800 net.cpp:106] Creating Layer pool5
I0227 04:34:43.878039 20800 net.cpp:454] pool5 <- conv5_3
I0227 04:34:43.878048 20800 net.cpp:411] pool5 -> pool5
I0227 04:34:43.878096 20800 net.cpp:150] Setting up pool5
I0227 04:34:43.878108 20800 net.cpp:157] Top shape: 10 512 41 41 (8606720)
I0227 04:34:43.878114 20800 net.cpp:165] Memory required for data: 2604736160
I0227 04:34:43.878121 20800 layer_factory.hpp:77] Creating layer pool5a
I0227 04:34:43.878137 20800 net.cpp:106] Creating Layer pool5a
I0227 04:34:43.878147 20800 net.cpp:454] pool5a <- pool5
I0227 04:34:43.878156 20800 net.cpp:411] pool5a -> pool5a
I0227 04:34:43.878182 20800 net.cpp:150] Setting up pool5a
I0227 04:34:43.878192 20800 net.cpp:157] Top shape: 10 512 41 41 (8606720)
I0227 04:34:43.878201 20800 net.cpp:165] Memory required for data: 2639163040
I0227 04:34:43.878208 20800 layer_factory.hpp:77] Creating layer pool5a_pool5a_0_split
I0227 04:34:43.878224 20800 net.cpp:106] Creating Layer pool5a_pool5a_0_split
I0227 04:34:43.878232 20800 net.cpp:454] pool5a_pool5a_0_split <- pool5a
I0227 04:34:43.878247 20800 net.cpp:411] pool5a_pool5a_0_split -> pool5a_pool5a_0_split_0
I0227 04:34:43.878258 20800 net.cpp:411] pool5a_pool5a_0_split -> pool5a_pool5a_0_split_1
I0227 04:34:43.878268 20800 net.cpp:411] pool5a_pool5a_0_split -> pool5a_pool5a_0_split_2
I0227 04:34:43.878278 20800 net.cpp:411] pool5a_pool5a_0_split -> pool5a_pool5a_0_split_3
I0227 04:34:43.878346 20800 net.cpp:150] Setting up pool5a_pool5a_0_split
I0227 04:34:43.878360 20800 net.cpp:157] Top shape: 10 512 41 41 (8606720)
I0227 04:34:43.878370 20800 net.cpp:157] Top shape: 10 512 41 41 (8606720)
I0227 04:34:43.878377 20800 net.cpp:157] Top shape: 10 512 41 41 (8606720)
I0227 04:34:43.878386 20800 net.cpp:157] Top shape: 10 512 41 41 (8606720)
I0227 04:34:43.878393 20800 net.cpp:165] Memory required for data: 2776870560
I0227 04:34:43.878401 20800 layer_factory.hpp:77] Creating layer fc6_1
I0227 04:34:43.878415 20800 net.cpp:106] Creating Layer fc6_1
I0227 04:34:43.878423 20800 net.cpp:454] fc6_1 <- pool5a_pool5a_0_split_0
I0227 04:34:43.878433 20800 net.cpp:411] fc6_1 -> fc6_1
I0227 04:34:43.893741 20800 net.cpp:150] Setting up fc6_1
I0227 04:34:43.893774 20800 net.cpp:157] Top shape: 10 1024 41 41 (17213440)
I0227 04:34:43.893782 20800 net.cpp:165] Memory required for data: 2845724320
I0227 04:34:43.893796 20800 layer_factory.hpp:77] Creating layer relu6_1
I0227 04:34:43.893810 20800 net.cpp:106] Creating Layer relu6_1
I0227 04:34:43.893820 20800 net.cpp:454] relu6_1 <- fc6_1
I0227 04:34:43.893829 20800 net.cpp:397] relu6_1 -> fc6_1 (in-place)
I0227 04:34:43.893842 20800 net.cpp:150] Setting up relu6_1
I0227 04:34:43.893851 20800 net.cpp:157] Top shape: 10 1024 41 41 (17213440)
I0227 04:34:43.893858 20800 net.cpp:165] Memory required for data: 2914578080
I0227 04:34:43.893865 20800 layer_factory.hpp:77] Creating layer drop6_1
I0227 04:34:43.893883 20800 net.cpp:106] Creating Layer drop6_1
I0227 04:34:43.893891 20800 net.cpp:454] drop6_1 <- fc6_1
I0227 04:34:43.893900 20800 net.cpp:397] drop6_1 -> fc6_1 (in-place)
I0227 04:34:43.893934 20800 net.cpp:150] Setting up drop6_1
I0227 04:34:43.893945 20800 net.cpp:157] Top shape: 10 1024 41 41 (17213440)
I0227 04:34:43.893952 20800 net.cpp:165] Memory required for data: 2983431840
I0227 04:34:43.893960 20800 layer_factory.hpp:77] Creating layer fc7_1
I0227 04:34:43.893976 20800 net.cpp:106] Creating Layer fc7_1
I0227 04:34:43.893985 20800 net.cpp:454] fc7_1 <- fc6_1
I0227 04:34:43.893995 20800 net.cpp:411] fc7_1 -> fc7_1
I0227 04:34:43.897876 20800 net.cpp:150] Setting up fc7_1
I0227 04:34:43.897912 20800 net.cpp:157] Top shape: 10 1024 41 41 (17213440)
I0227 04:34:43.897924 20800 net.cpp:165] Memory required for data: 3052285600
I0227 04:34:43.897943 20800 layer_factory.hpp:77] Creating layer relu7_1
I0227 04:34:43.897963 20800 net.cpp:106] Creating Layer relu7_1
I0227 04:34:43.897975 20800 net.cpp:454] relu7_1 <- fc7_1
I0227 04:34:43.897989 20800 net.cpp:397] relu7_1 -> fc7_1 (in-place)
I0227 04:34:43.898007 20800 net.cpp:150] Setting up relu7_1
I0227 04:34:43.898022 20800 net.cpp:157] Top shape: 10 1024 41 41 (17213440)
I0227 04:34:43.898034 20800 net.cpp:165] Memory required for data: 3121139360
I0227 04:34:43.898046 20800 layer_factory.hpp:77] Creating layer drop7_1
I0227 04:34:43.898063 20800 net.cpp:106] Creating Layer drop7_1
I0227 04:34:43.898075 20800 net.cpp:454] drop7_1 <- fc7_1
I0227 04:34:43.898089 20800 net.cpp:397] drop7_1 -> fc7_1 (in-place)
I0227 04:34:43.898138 20800 net.cpp:150] Setting up drop7_1
I0227 04:34:43.898156 20800 net.cpp:157] Top shape: 10 1024 41 41 (17213440)
I0227 04:34:43.898169 20800 net.cpp:165] Memory required for data: 3189993120
I0227 04:34:43.898180 20800 layer_factory.hpp:77] Creating layer fc8-SEC_1
I0227 04:34:43.898202 20800 net.cpp:106] Creating Layer fc8-SEC_1
I0227 04:34:43.898216 20800 net.cpp:454] fc8-SEC_1 <- fc7_1
I0227 04:34:43.898234 20800 net.cpp:411] fc8-SEC_1 -> fc8-SEC_1
I0227 04:34:43.899065 20800 net.cpp:150] Setting up fc8-SEC_1
I0227 04:34:43.899089 20800 net.cpp:157] Top shape: 10 21 41 41 (353010)
I0227 04:34:43.899101 20800 net.cpp:165] Memory required for data: 3191405160
I0227 04:34:43.899119 20800 layer_factory.hpp:77] Creating layer fc6_2
I0227 04:34:43.899142 20800 net.cpp:106] Creating Layer fc6_2
I0227 04:34:43.899154 20800 net.cpp:454] fc6_2 <- pool5a_pool5a_0_split_1
I0227 04:34:43.899169 20800 net.cpp:411] fc6_2 -> fc6_2
I0227 04:34:43.911162 20800 net.cpp:150] Setting up fc6_2
I0227 04:34:43.911185 20800 net.cpp:157] Top shape: 10 1024 41 41 (17213440)
I0227 04:34:43.911190 20800 net.cpp:165] Memory required for data: 3260258920
I0227 04:34:43.911208 20800 layer_factory.hpp:77] Creating layer relu6_2
I0227 04:34:43.911218 20800 net.cpp:106] Creating Layer relu6_2
I0227 04:34:43.911226 20800 net.cpp:454] relu6_2 <- fc6_2
I0227 04:34:43.911233 20800 net.cpp:397] relu6_2 -> fc6_2 (in-place)
I0227 04:34:43.911242 20800 net.cpp:150] Setting up relu6_2
I0227 04:34:43.911249 20800 net.cpp:157] Top shape: 10 1024 41 41 (17213440)
I0227 04:34:43.911272 20800 net.cpp:165] Memory required for data: 3329112680
I0227 04:34:43.911291 20800 layer_factory.hpp:77] Creating layer drop6_2
I0227 04:34:43.911299 20800 net.cpp:106] Creating Layer drop6_2
I0227 04:34:43.911304 20800 net.cpp:454] drop6_2 <- fc6_2
I0227 04:34:43.911314 20800 net.cpp:397] drop6_2 -> fc6_2 (in-place)
I0227 04:34:43.911337 20800 net.cpp:150] Setting up drop6_2
I0227 04:34:43.911345 20800 net.cpp:157] Top shape: 10 1024 41 41 (17213440)
I0227 04:34:43.911352 20800 net.cpp:165] Memory required for data: 3397966440
I0227 04:34:43.911358 20800 layer_factory.hpp:77] Creating layer fc7_2
I0227 04:34:43.911367 20800 net.cpp:106] Creating Layer fc7_2
I0227 04:34:43.911373 20800 net.cpp:454] fc7_2 <- fc6_2
I0227 04:34:43.911381 20800 net.cpp:411] fc7_2 -> fc7_2
I0227 04:34:43.913585 20800 net.cpp:150] Setting up fc7_2
I0227 04:34:43.913620 20800 net.cpp:157] Top shape: 10 1024 41 41 (17213440)
I0227 04:34:43.913626 20800 net.cpp:165] Memory required for data: 3466820200
I0227 04:34:43.913635 20800 layer_factory.hpp:77] Creating layer relu7_2
I0227 04:34:43.913646 20800 net.cpp:106] Creating Layer relu7_2
I0227 04:34:43.913653 20800 net.cpp:454] relu7_2 <- fc7_2
I0227 04:34:43.913663 20800 net.cpp:397] relu7_2 -> fc7_2 (in-place)
I0227 04:34:43.913671 20800 net.cpp:150] Setting up relu7_2
I0227 04:34:43.913678 20800 net.cpp:157] Top shape: 10 1024 41 41 (17213440)
I0227 04:34:43.913684 20800 net.cpp:165] Memory required for data: 3535673960
I0227 04:34:43.913689 20800 layer_factory.hpp:77] Creating layer drop7_2
I0227 04:34:43.913698 20800 net.cpp:106] Creating Layer drop7_2
I0227 04:34:43.913704 20800 net.cpp:454] drop7_2 <- fc7_2
I0227 04:34:43.913712 20800 net.cpp:397] drop7_2 -> fc7_2 (in-place)
I0227 04:34:43.913735 20800 net.cpp:150] Setting up drop7_2
I0227 04:34:43.913744 20800 net.cpp:157] Top shape: 10 1024 41 41 (17213440)
I0227 04:34:43.913749 20800 net.cpp:165] Memory required for data: 3604527720
I0227 04:34:43.913755 20800 layer_factory.hpp:77] Creating layer fc8-SEC_2
I0227 04:34:43.913766 20800 net.cpp:106] Creating Layer fc8-SEC_2
I0227 04:34:43.913772 20800 net.cpp:454] fc8-SEC_2 <- fc7_2
I0227 04:34:43.913780 20800 net.cpp:411] fc8-SEC_2 -> fc8-SEC_2
I0227 04:34:43.914163 20800 net.cpp:150] Setting up fc8-SEC_2
I0227 04:34:43.914175 20800 net.cpp:157] Top shape: 10 21 41 41 (353010)
I0227 04:34:43.914196 20800 net.cpp:165] Memory required for data: 3605939760
I0227 04:34:43.914203 20800 layer_factory.hpp:77] Creating layer fc6_3
I0227 04:34:43.914213 20800 net.cpp:106] Creating Layer fc6_3
I0227 04:34:43.914219 20800 net.cpp:454] fc6_3 <- pool5a_pool5a_0_split_2
I0227 04:34:43.914228 20800 net.cpp:411] fc6_3 -> fc6_3
I0227 04:34:43.922900 20800 net.cpp:150] Setting up fc6_3
I0227 04:34:43.922950 20800 net.cpp:157] Top shape: 10 1024 41 41 (17213440)
I0227 04:34:43.922957 20800 net.cpp:165] Memory required for data: 3674793520
I0227 04:34:43.922967 20800 layer_factory.hpp:77] Creating layer relu6_3
I0227 04:34:43.922977 20800 net.cpp:106] Creating Layer relu6_3
I0227 04:34:43.922986 20800 net.cpp:454] relu6_3 <- fc6_3
I0227 04:34:43.922996 20800 net.cpp:397] relu6_3 -> fc6_3 (in-place)
I0227 04:34:43.923007 20800 net.cpp:150] Setting up relu6_3
I0227 04:34:43.923013 20800 net.cpp:157] Top shape: 10 1024 41 41 (17213440)
I0227 04:34:43.923019 20800 net.cpp:165] Memory required for data: 3743647280
I0227 04:34:43.923025 20800 layer_factory.hpp:77] Creating layer drop6_3
I0227 04:34:43.923033 20800 net.cpp:106] Creating Layer drop6_3
I0227 04:34:43.923040 20800 net.cpp:454] drop6_3 <- fc6_3
I0227 04:34:43.923048 20800 net.cpp:397] drop6_3 -> fc6_3 (in-place)
I0227 04:34:43.923074 20800 net.cpp:150] Setting up drop6_3
I0227 04:34:43.923082 20800 net.cpp:157] Top shape: 10 1024 41 41 (17213440)
I0227 04:34:43.923089 20800 net.cpp:165] Memory required for data: 3812501040
I0227 04:34:43.923094 20800 layer_factory.hpp:77] Creating layer fc7_3
I0227 04:34:43.923105 20800 net.cpp:106] Creating Layer fc7_3
I0227 04:34:43.923111 20800 net.cpp:454] fc7_3 <- fc6_3
I0227 04:34:43.923120 20800 net.cpp:411] fc7_3 -> fc7_3
I0227 04:34:43.925629 20800 net.cpp:150] Setting up fc7_3
I0227 04:34:43.925663 20800 net.cpp:157] Top shape: 10 1024 41 41 (17213440)
I0227 04:34:43.925670 20800 net.cpp:165] Memory required for data: 3881354800
I0227 04:34:43.925679 20800 layer_factory.hpp:77] Creating layer relu7_3
I0227 04:34:43.925690 20800 net.cpp:106] Creating Layer relu7_3
I0227 04:34:43.925698 20800 net.cpp:454] relu7_3 <- fc7_3
I0227 04:34:43.925705 20800 net.cpp:397] relu7_3 -> fc7_3 (in-place)
I0227 04:34:43.925714 20800 net.cpp:150] Setting up relu7_3
I0227 04:34:43.925721 20800 net.cpp:157] Top shape: 10 1024 41 41 (17213440)
I0227 04:34:43.925727 20800 net.cpp:165] Memory required for data: 3950208560
I0227 04:34:43.925734 20800 layer_factory.hpp:77] Creating layer drop7_3
I0227 04:34:43.925743 20800 net.cpp:106] Creating Layer drop7_3
I0227 04:34:43.925750 20800 net.cpp:454] drop7_3 <- fc7_3
I0227 04:34:43.925760 20800 net.cpp:397] drop7_3 -> fc7_3 (in-place)
I0227 04:34:43.925783 20800 net.cpp:150] Setting up drop7_3
I0227 04:34:43.925792 20800 net.cpp:157] Top shape: 10 1024 41 41 (17213440)
I0227 04:34:43.925798 20800 net.cpp:165] Memory required for data: 4019062320
I0227 04:34:43.925803 20800 layer_factory.hpp:77] Creating layer fc8-SEC_3
I0227 04:34:43.925815 20800 net.cpp:106] Creating Layer fc8-SEC_3
I0227 04:34:43.925822 20800 net.cpp:454] fc8-SEC_3 <- fc7_3
I0227 04:34:43.925829 20800 net.cpp:411] fc8-SEC_3 -> fc8-SEC_3
I0227 04:34:43.926224 20800 net.cpp:150] Setting up fc8-SEC_3
I0227 04:34:43.926236 20800 net.cpp:157] Top shape: 10 21 41 41 (353010)
I0227 04:34:43.926257 20800 net.cpp:165] Memory required for data: 4020474360
I0227 04:34:43.926266 20800 layer_factory.hpp:77] Creating layer fc6_4
I0227 04:34:43.926276 20800 net.cpp:106] Creating Layer fc6_4
I0227 04:34:43.926282 20800 net.cpp:454] fc6_4 <- pool5a_pool5a_0_split_3
I0227 04:34:43.926293 20800 net.cpp:411] fc6_4 -> fc6_4
I0227 04:34:43.935410 20800 net.cpp:150] Setting up fc6_4
I0227 04:34:43.935444 20800 net.cpp:157] Top shape: 10 1024 41 41 (17213440)
I0227 04:34:43.935451 20800 net.cpp:165] Memory required for data: 4089328120
I0227 04:34:43.935459 20800 layer_factory.hpp:77] Creating layer relu6_4
I0227 04:34:43.935468 20800 net.cpp:106] Creating Layer relu6_4
I0227 04:34:43.935474 20800 net.cpp:454] relu6_4 <- fc6_4
I0227 04:34:43.935483 20800 net.cpp:397] relu6_4 -> fc6_4 (in-place)
I0227 04:34:43.935493 20800 net.cpp:150] Setting up relu6_4
I0227 04:34:43.935500 20800 net.cpp:157] Top shape: 10 1024 41 41 (17213440)
I0227 04:34:43.935505 20800 net.cpp:165] Memory required for data: 4158181880
I0227 04:34:43.935511 20800 layer_factory.hpp:77] Creating layer drop6_4
I0227 04:34:43.935518 20800 net.cpp:106] Creating Layer drop6_4
I0227 04:34:43.935524 20800 net.cpp:454] drop6_4 <- fc6_4
I0227 04:34:43.935531 20800 net.cpp:397] drop6_4 -> fc6_4 (in-place)
I0227 04:34:43.935555 20800 net.cpp:150] Setting up drop6_4
I0227 04:34:43.935564 20800 net.cpp:157] Top shape: 10 1024 41 41 (17213440)
I0227 04:34:43.935570 20800 net.cpp:165] Memory required for data: 4227035640
I0227 04:34:43.935575 20800 layer_factory.hpp:77] Creating layer fc7_4
I0227 04:34:43.935585 20800 net.cpp:106] Creating Layer fc7_4
I0227 04:34:43.935590 20800 net.cpp:454] fc7_4 <- fc6_4
I0227 04:34:43.935597 20800 net.cpp:411] fc7_4 -> fc7_4
I0227 04:34:43.938311 20800 net.cpp:150] Setting up fc7_4
I0227 04:34:43.938344 20800 net.cpp:157] Top shape: 10 1024 41 41 (17213440)
I0227 04:34:43.938351 20800 net.cpp:165] Memory required for data: 4295889400
I0227 04:34:43.938360 20800 layer_factory.hpp:77] Creating layer relu7_4
I0227 04:34:43.938370 20800 net.cpp:106] Creating Layer relu7_4
I0227 04:34:43.938377 20800 net.cpp:454] relu7_4 <- fc7_4
I0227 04:34:43.938388 20800 net.cpp:397] relu7_4 -> fc7_4 (in-place)
I0227 04:34:43.938397 20800 net.cpp:150] Setting up relu7_4
I0227 04:34:43.938405 20800 net.cpp:157] Top shape: 10 1024 41 41 (17213440)
I0227 04:34:43.938410 20800 net.cpp:165] Memory required for data: 4364743160
I0227 04:34:43.938416 20800 layer_factory.hpp:77] Creating layer drop7_4
I0227 04:34:43.938423 20800 net.cpp:106] Creating Layer drop7_4
I0227 04:34:43.938429 20800 net.cpp:454] drop7_4 <- fc7_4
I0227 04:34:43.938437 20800 net.cpp:397] drop7_4 -> fc7_4 (in-place)
I0227 04:34:43.938459 20800 net.cpp:150] Setting up drop7_4
I0227 04:34:43.938467 20800 net.cpp:157] Top shape: 10 1024 41 41 (17213440)
I0227 04:34:43.938473 20800 net.cpp:165] Memory required for data: 4433596920
I0227 04:34:43.938478 20800 layer_factory.hpp:77] Creating layer fc8-SEC_4
I0227 04:34:43.938491 20800 net.cpp:106] Creating Layer fc8-SEC_4
I0227 04:34:43.938498 20800 net.cpp:454] fc8-SEC_4 <- fc7_4
I0227 04:34:43.938505 20800 net.cpp:411] fc8-SEC_4 -> fc8-SEC_4
I0227 04:34:43.938947 20800 net.cpp:150] Setting up fc8-SEC_4
I0227 04:34:43.938958 20800 net.cpp:157] Top shape: 10 21 41 41 (353010)
I0227 04:34:43.938978 20800 net.cpp:165] Memory required for data: 4435008960
I0227 04:34:43.938987 20800 layer_factory.hpp:77] Creating layer fc8-SEC
I0227 04:34:43.938999 20800 net.cpp:106] Creating Layer fc8-SEC
I0227 04:34:43.939007 20800 net.cpp:454] fc8-SEC <- fc8-SEC_1
I0227 04:34:43.939013 20800 net.cpp:454] fc8-SEC <- fc8-SEC_2
I0227 04:34:43.939018 20800 net.cpp:454] fc8-SEC <- fc8-SEC_3
I0227 04:34:43.939023 20800 net.cpp:454] fc8-SEC <- fc8-SEC_4
I0227 04:34:43.939030 20800 net.cpp:411] fc8-SEC -> fc8-SEC
I0227 04:34:43.939057 20800 net.cpp:150] Setting up fc8-SEC
I0227 04:34:43.939065 20800 net.cpp:157] Top shape: 10 21 41 41 (353010)
I0227 04:34:43.939070 20800 net.cpp:165] Memory required for data: 4436421000
I0227 04:34:43.939075 20800 layer_factory.hpp:77] Creating layer fc8-SEC_fc8-SEC_0_split
I0227 04:34:43.939083 20800 net.cpp:106] Creating Layer fc8-SEC_fc8-SEC_0_split
I0227 04:34:43.939088 20800 net.cpp:454] fc8-SEC_fc8-SEC_0_split <- fc8-SEC
I0227 04:34:43.939096 20800 net.cpp:411] fc8-SEC_fc8-SEC_0_split -> fc8-SEC_fc8-SEC_0_split_0
I0227 04:34:43.939103 20800 net.cpp:411] fc8-SEC_fc8-SEC_0_split -> fc8-SEC_fc8-SEC_0_split_1
I0227 04:34:43.939131 20800 net.cpp:150] Setting up fc8-SEC_fc8-SEC_0_split
I0227 04:34:43.939141 20800 net.cpp:157] Top shape: 10 21 41 41 (353010)
I0227 04:34:43.939146 20800 net.cpp:157] Top shape: 10 21 41 41 (353010)
I0227 04:34:43.939152 20800 net.cpp:165] Memory required for data: 4439245080
I0227 04:34:43.939157 20800 layer_factory.hpp:77] Creating layer label_shrink
I0227 04:34:43.940989 20800 net.cpp:106] Creating Layer label_shrink
I0227 04:34:43.941015 20800 net.cpp:454] label_shrink <- label
I0227 04:34:43.941037 20800 net.cpp:411] label_shrink -> label_shrink
I0227 04:34:43.941066 20800 net.cpp:150] Setting up label_shrink
I0227 04:34:43.941076 20800 net.cpp:157] Top shape: 10 1 41 41 (16810)
I0227 04:34:43.941082 20800 net.cpp:165] Memory required for data: 4439312320
I0227 04:34:43.941088 20800 layer_factory.hpp:77] Creating layer label_shrink_label_shrink_0_split
I0227 04:34:43.941097 20800 net.cpp:106] Creating Layer label_shrink_label_shrink_0_split
I0227 04:34:43.941102 20800 net.cpp:454] label_shrink_label_shrink_0_split <- label_shrink
I0227 04:34:43.941110 20800 net.cpp:411] label_shrink_label_shrink_0_split -> label_shrink_label_shrink_0_split_0
I0227 04:34:43.941118 20800 net.cpp:411] label_shrink_label_shrink_0_split -> label_shrink_label_shrink_0_split_1
I0227 04:34:43.941148 20800 net.cpp:150] Setting up label_shrink_label_shrink_0_split
I0227 04:34:43.941156 20800 net.cpp:157] Top shape: 10 1 41 41 (16810)
I0227 04:34:43.941164 20800 net.cpp:157] Top shape: 10 1 41 41 (16810)
I0227 04:34:43.941169 20800 net.cpp:165] Memory required for data: 4439446800
I0227 04:34:43.941174 20800 layer_factory.hpp:77] Creating layer loss
I0227 04:34:43.941545 20800 net.cpp:106] Creating Layer loss
I0227 04:34:43.941579 20800 net.cpp:454] loss <- fc8-SEC_fc8-SEC_0_split_0
I0227 04:34:43.941588 20800 net.cpp:454] loss <- label_shrink_label_shrink_0_split_0
I0227 04:34:43.941602 20800 net.cpp:411] loss -> (automatic)
I0227 04:34:43.941617 20800 layer_factory.hpp:77] Creating layer loss
I0227 04:34:43.943300 20800 net.cpp:150] Setting up loss
I0227 04:34:43.943322 20800 net.cpp:157] Top shape: (1)
I0227 04:34:43.943331 20800 net.cpp:160]     with loss weight 1
I0227 04:34:43.943348 20800 net.cpp:165] Memory required for data: 4439446804
I0227 04:34:43.943357 20800 layer_factory.hpp:77] Creating layer accuracy
I0227 04:34:43.943657 20800 net.cpp:106] Creating Layer accuracy
I0227 04:34:43.943672 20800 net.cpp:454] accuracy <- fc8-SEC_fc8-SEC_0_split_1
I0227 04:34:43.943683 20800 net.cpp:454] accuracy <- label_shrink_label_shrink_0_split_1
I0227 04:34:43.943697 20800 net.cpp:411] accuracy -> accuracy
I0227 04:34:43.943747 20800 net.cpp:150] Setting up accuracy
I0227 04:34:43.943761 20800 net.cpp:157] Top shape: 1 1 1 3 (3)
I0227 04:34:43.943770 20800 net.cpp:165] Memory required for data: 4439446816
I0227 04:34:43.943779 20800 net.cpp:228] accuracy does not need backward computation.
I0227 04:34:43.943787 20800 net.cpp:226] loss needs backward computation.
I0227 04:34:43.943796 20800 net.cpp:228] label_shrink_label_shrink_0_split does not need backward computation.
I0227 04:34:43.943804 20800 net.cpp:228] label_shrink does not need backward computation.
…
